Bonus Exercise/exercise_11/lightning_logs/version_16/checkpoints/epoch=13.ckpt (torch_old, 353090 bytes, 24 tensors)

exp_avg f4 [128, 28]
00000000: fc09 29bb e609 29bb 94c3 29bb c46c 27bb
00000010: f942 1dbb 04d8 1fbb 0296 41bb c783 60bb
00000020: 93ca 6fbb 4bf8 77bb 79f8 3fbb 605c 26ba
00000030: 3c69 07ba 8968 c9ba e5fc 67ba c176 4f3a
00000040: ddc2 4d39 54d4 22bb 34f4 3dbb 25c2 75bb
00000050: d3d1 5bbb cfc2 5abb f7b4 80bb bbba 57bb
00000060: 9a9e 34bb d7a3 28bb 0043 27bb e5de 28bb
00000070: d1bc 363b 0bbe 363b d3ed 363b 2b56 363b
00000080: 0940 113b 3c32 fe3a 9d10 423b 90ef dd3a
00000090: 995e db39 6779 c5b8 5c9b 2aba 91ae a7ba
000000a0: 9011 e43a b32b f2ba fd0d 21bb 70b7 393a
000000b0: 1031 6bb9 0663 883a 0970 173b ab28 063b
000000c0: 91d9 083b a961 153b d581 133b 1fde 183b
000000d0: 7932 203b eece 2d3b 854d 363b fc81 363b
000000e0: ca8c 2f3a d08e 2f3a 31d0 2d3a ff57 123a
000000f0: 147b d639 a506 1d3b 034f 653b 5d63 ad3b
00000100: f85c b23b edd0 753b a787 a63a ae5c 7e3a
00000110: 0c28 803b 9204 9a3b e052 643b 2783 453b
00000120: 5bb2 993b 4476 893b d5be 383b 92ab 413a
00000130: 3656 143a 8360 143b 264c 223b ffa7 a03a
00000140: e65c 883a 689b 513a b3e5 413a f319 303a
00000150: 2ba3 0cbb 43a3 0cbb 498e 0cbb c141 03bb
00000160: 555a cdba b4d1 bdba f18e e5ba b830 7ebb
00000170: bcd7 cbba 3014 043a fa1b a63a b891 ca3a
00000180: 6e41 223a 1dd8 a3b9 141b 0d3a d774 d83a
00000190: 71b6 223a c206 0939 1a02 b83a 004a f7ba
000001a0: 44dc 53bb 7dd5 9ebb 19f6 08bb 8fb2 82ba
000001b0: 1c1b f5ba 7433 10bb 8482 11bb 47a8 0cbb
000001c0: f8dc bcbb ebdc bcbb 10d6 bcbb 8b6a b6bb
000001d0: 4c92 b9bb b03c bfbb 245a acbb e4b0 ebbb
000001e0: dedf cbbb 62e3 94bb ab05 f8ba bc79 933a
000001f0: a133 5b3a 677f 81b8 006e 6339 c0ee ca3a
00000200: bbb5 0d3b 999c b6ba 1142 afba fb2b 3cbb
00000210: e830 a6bb 7a8d e6bb e9f9 edbb cf76 dbbb
00000220: a1a0 bdbb 1935 bebb 770b bebb 78e1 bcbb
00000230: 7110 0c3b 9210 0c3b cb69 0b3b d48f 0b3b
00000240: 2586 1b3b d86d 1d39 03b2 193a b799 ae3a
00000250: 55aa 983a 83e9 f138 42a0 6339 d42c fc39
00000260: c359 013b ac3e b239 f4e4 faba bb7b d6ba
00000270: 2e4a 3aba 4fa8 7d3b 5308 b73b 7250 533b
00000280: 04b9 8db9 e35e 00ba ddad 833a b97a a63a
00000290: 2bfa e23a e12f 0c3b 3e32 0d3b 01f7 0b3b
000002a0: 0593 5b3b 0493 5b3b 109e 5b3b a06d 553b
000002b0: b394 503b 3ec9 6f3b a461 893b d189 893b
000002c0: 0bee 643b c820 a939 1140 8aba 9e11 f7b9
000002d0: 43f4 203b 444c 5c3b 7ac3 f43a 96c0 9eb9
000002e0: ae0c a83a 68a1 653b dbe8 4f3b ef39 1a3b
000002f0: 9ae5 4b3b 411d a33b 8946 a43b 183f 763b
00000300: 8ae0 4d3b cb09 5c3b 5551 5f3b 059c 5b3b
00000310: f36c 9eba f96d 9eba d48f a1ba 6f94 a6ba
00000320: 7123 64ba 8f25 91ba 6cd4 233a c5d8 ca3a
00000330: ecf7 813a dd51 083a 733c 233b fe0e a23b
00000340: c06a 903b ee35 5b3b f94e e83a c4a2 b1ba
00000350: 0422 4eba e238 dbb9 c3fd edba fcac 8bba
00000360: b8ab a9b9 7fdb b43a d592 263b e99d cf3a
00000370: b422 9eb9 0730 83ba 4199 9eba 056b 9eba
00000380: 6e25 a63b 5225 a63b 938a a63b 616a a93b
00000390: 3b68 b33b 8735 9a3b ece3 a23b 5fde 623b
000003a0: 085e 0b3a 160b fa38 9c86 3d3a c82f 3f3b
000003b0: d9f1 3e3b b4ab 013b fc93 273b b4f3 0ab9
000003c0: 4aa1 60bb d837 7d3b 7f35 d83b 1bab e13b
000003d0: 70f4 d13b c9a1 aa3b f59e 723b 5308 4d3b
000003e0: 91f9 803b fd8f a53b d8bc a53b ca23 a63b
000003f0: 15a5 0abb 87a5 0abb 4117 0cbb 803c 13bb
-0.0025793305 -0.0025793253 -0.0025903927 -0.0025547007 -0.0023996218 -0.002439023 -0.0029538875 -0.0034258233
-0.003658925 -0.0037837203 -0.0029292388 -0.00063461624 -0.00051655225 -0.0015366237 -0.0008849635 0.0007914119
0.00019622916 -0.0024845796 -0.0028984668 -0.0037499752 -0.0033541813 -0.0033380275 -0.0039278227 -0.0032917697
-0.0027560354 -0.0025732422 -0.0025522113 -0.002576762 0.002788354 0.002788427 0.002791275 0.0027822356
0.0022163412 0.0019393633 0.0029611953 0.0016932357 0.00041841416 -9.416305e-05 -0.00065081357 -0.0012793114
0.0017400254 -0.0018476158 -0.0024574988 0.0007084524 -0.00022429624 0.0010405488 0.002310755 0.0020471017
0.0020881633 0.0022793806 0.0022507806 0.0023325754 0.0024444147 0.0026521045 0.0027817201 0.0027848473
0.00066966994 0.0006697001 0.0006630449 0.00055825704 0.0004090896 0.002396026 0.0034989722 0.005291386
0.0054432116 0.0037508563 0.0012705222 0.00097031414 0.003911024 0.004700252 0.0034839436 0.0030137987
0.004690451 0.0041950066 0.0028189917 0.00073879317 0.00056585984 0.0022640533 0.0024764626 0.0012257098
0.0010403662 0.00079958746 0.00073965936 0.0006717734 -0.002145956 -0.0021459616 -0.0021447113 -0.0020028206
-0.001566718 -0.0014482052 -0.0017513913 -0.0038786363 -0.0015551965 0.00050384086 0.0012673133 0.0015454805
0.00061895594 -0.000312508 0.0005382758 0.0016514313 0.00062069955 0.00013067856 0.0014038712 -0.0018866658
-0.0032327333 -0.004847227 -0.0020898639 -0.0009971427 -0.0018700096 -0.0022003325 -0.0022203038 -0.0021462606
-0.005763646 -0.00576364 -0.005762823 -0.0055669 -0.005663192 -0.005836092 -0.005259769 -0.007192718
-0.0062217554 -0.0045437077 -0.0018922588 0.001125149 0.00083618803 -6.17493e-05 0.00021689385 0.001548253
0.0021623212 -0.0013932168 -0.001337113 -0.0028712738 -0.005071748 -0.0070359083 -0.0072624576 -0.0066975127
-0.0057869707 -0.0058046696 -0.0057997066 -0.0057641827 0.0021372105 0.0021372181 0.0021272774 0.0021295445
0.002373108 0.00015013607 0.00058630126 0.0013320957 0.0011647443 0.000115352705 0.00021708108 0.00048098585
0.001973734 0.000339975 -0.001914172 -0.0016363779 -0.00071063905 0.0038705056 0.005585709 0.0032243994
-0.00027031463 -0.0004896952 0.0010046322 0.0012701369 0.0017316988 0.0021390843 0.002154484 0.0021356943
0.0033504379 0.0033504376 0.003351096 0.0032566562 0.0031826913 0.0036588456 0.004192548 0.004197337
0.0034931924 0.00032258616 -0.0010547658 -0.00047124637 0.0024559654 0.0033614794 0.0018673979 -0.00030279596
0.0012821162 0.0035038833 0.0031724486 0.0023533066 0.0031112195 0.0049778526 0.0050132913 0.0037574228
0.0031414353 0.0033575173 0.0034075577 0.0033509743 -0.0012086913 -0.0012087218 -0.0012326189 -0.0012709032
-0.0008702791 -0.0011073815 0.000624961 0.0015475979 0.0009915805 0.0005200187 0.0024907857 0.004945635
0.004407257 0.0033448893 0.0017723731 -0.0013552536 -0.0007863345 -0.00041813316 -0.0018157292 -0.0010656412
-0.00032362132 0.0013798325 0.0025417109 0.0015839908 -0.00030161964 -0.001000882 -0.0012100117 -0.0012086338
0.00507038 0.005070367 0.0050824373 0.005170152 0.0054750717 0.004706088 0.004971018 0.0034617407
0.0005316441 0.00011922994 0.0007229836 0.0029172767 0.0029135852 0.001978618 0.0025570383 -0.00013251492
-0.0034275823 0.0038638022 0.006598174 0.0068868524 0.006407313 0.0052072746 0.0037021015 0.003128548
0.0039360006 0.005052565 0.0050579123 0.0050701844 -0.0021155525 -0.002115579 -0.0021376165 -0.002246648

exp_avg_sq f4 [128, 28]
00000000: 95c4 9438 36c5 9438 6cb1 9438 2051 9438
00000010: 4c5e 9038 75bc 9638 4302 9c38 d332 b438
00000020: ab1d bf38 826f c938 a3d8 c238 4080 aa38
00000030: e073 bb38 94c0 b938 6f8d a338 9900 ba38
00000040: c6bb c938 abce d638 951f c338 dfbf aa38
00000050: 49a3 9e38 be07 9838 ed27 9a38 3f1f 9738
00000060: 6484 9a38 9c6b 9538 7dc1 9238 86a1 9438
00000070: 1627 dd39 4727 dd39 8306 dd39 1ddf db39
00000080: 7ac2 da39 d41c da39 e8ad d939 4c4d d539
00000090: 0e95 d039 6de4 d939 d881 cf39 07d2 b139
000000a0: 6f51 a139 6090 9e39 9278 a539 04fb ad39
000000b0: 69ff b939 9cae c639 62c0 d539 a7fe df39
000000c0: 6af2 e239 aaed e239 f070 de39 d61a dc39
000000d0: 4790 dc39 b8d8 dc39 0df5 dc39 dd16 dd39
000000e0: b29c 2e39 369e 2e39 0ade 2e39 9e2e 3039
000000f0: 92b1 3239 2926 3e39 5633 5039 8069 5f39
00000100: ce92 6939 14a0 7c39 92c9 8239 6bcc 7c39
00000110: bc30 7239 2b90 7639 2704 7939 2f38 8939
00000120: 333b 8d39 0346 9439 d295 8839 54bd 6f39
00000130: 9264 5839 df97 5539 8c46 4339 b7a9 3439
00000140: bc7c 2b39 152f 2b39 8223 2e39 6091 2e39
00000150: 1797 8c39 d290 8c39 666e 8c39 73df 8a39
00000160: 4ad4 8839 b22c 8a39 ed82 8139 e4f6 6639
00000170: cc7d 5c39 bc8d 5039 73de 3e39 7019 2f39
00000180: 37f2 2939 1987 2639 a7f8 2b39 0d73 4139
00000190: 7eeb 4539 d02b 3a39 a604 5239 e8a4 7239
000001a0: 785c 8139 0e1b 8739 e17d 8a39 7af9 8b39
000001b0: 271a 8f39 4840 8e39 df9f 8d39 f0a9 8c39
000001c0: 2929 9a39 2525 9a39 87c2 9939 91be 9839
000001d0: e698 9339 c1ec 8e39 fc30 8639 d9f7 7d39
000001e0: ef3d 7039 14b8 6c39 15b1 5e39 f21e 5139
000001f0: e385 5139 94f9 5b39 6cb9 4c39 d0ca 3639
00000200: 5a67 3539 3134 4739 2917 5639 9920 7739
00000210: 80a7 8a39 98a2 9239 7446 9539 1acd 9639
00000220: 61cd 9a39 ccb9 9b39 9e04 9d39 b121 9a39
00000230: abd3 9739 2bd6 9739 1b1f 9839 ac32 9839
00000240: cee9 9739 e0a2 9c39 0e90 a139 f703 a039
00000250: de22 9e39 65c5 9c39 58fb 9839 3ef9 9139
00000260: 1eb5 8739 8de3 6c39 7494 4a39 8a18 6139
00000270: 591d 7439 52e9 8b39 2019 9439 4088 9739
00000280: 89af 9839 05fc a139 1bda 9839 a9ed 9639
00000290: 7439 9639 1027 9639 b519 9739 a2d8 9739
000002a0: 281f 0939 5e21 0939 7f01 0939 9580 0839
000002b0: 5d24 0639 b9b7 0639 3d67 0339 7ba1 0e39
000002c0: 6d19 1339 bf63 1639 e1e8 0f39 bbb7 f738
000002d0: 6b21 0139 4463 e838 f3f2 c238 6789 dc38
000002e0: de2f e238 fdec 0939 6dc8 0c39 6476 0639
000002f0: 0cdd 0639 18bc 0439 de9d 0c39 52ce 0e39
00000300: 4023 0e39 32a8 0c39 6b4e 0939 ce06 0939
00000310: e702 4539 4f08 4539 ffdd 4439 cd5d 4339
00000320: b76f 3e39 b795 3639 cf42 2f39 3c32 1d39
00000330: d8fb 0d39 c379 1339 4034 1639 82cd 0d39
00000340: 30e7 0339 8ab0 ff38 4c0a ed38 5d76 f638
00000350: ea61 0d39 2702 2a39 f161 3639 71f3 3439
00000360: 371c 3a39 ea09 4339 de75 4339 752c 4839
00000370: 1958 4539 3e8b 4439 891d 4539 8c00 4539
00000380: d505 2c39 2e06 2c39 da3f 2c39 1b54 2b39
00000390: c9cc 2939 5fb4 2639 806f 2e39 44e4 2b39
000003a0: f358 2039 eb6d 2039 bffa 1939 da7c 1139
000003b0: 5da4 1539 be11 1d39 5861 1939 818b 1139
000003c0: bad0 1f39 9f44 2639 02a3 2a39 c732 2a39
000003d0: c27c 2739 4865 2739 a99f 2239 ad4d 2639
000003e0: c0d0 2939 5e84 2b39 cda4 2b39 5301 2c39
000003f0: 0017 f738 e215 f738 b23a f838 4af8 f638
7.093806e-05 7.093923e-05 7.090237e-05 7.072301e-05 6.884019e-05 7.18766e-05 7.439081e-05 8.5925356e-05
9.113116e-05 9.605197e-05 9.2909926e-05 8.13012e-05 8.938438e-05 8.857358e-05 7.79879e-05 8.8692825e-05
9.6194024e-05 0.0001024281 9.304207e-05 8.1419705e-05 7.564441e-05 7.249367e-05 7.350729e-05 7.206061e-05
7.367952e-05 7.1249175e-05 6.9978625e-05 7.087276e-05 0.00042181526 0.0004218167 0.00042157256 0.00041937167
0.00041725097 0.0004160168 0.00041519036 0.00040684117 0.00039783906 0.00041559656 0.00039578858 0.00033916553
0.00030768986 0.00030243676 0.00031561084 0.00033184153 0.00035476245 0.00037895597 0.00040769862 0.00042723605
0.00043286692 0.00043283153 0.00042427285 0.00041981664 0.00042069165 0.00042123138 0.00042144247 0.0004216944
0.00016652307 0.00016652871 0.00016676649 0.00016802034 0.00017041553 0.00018134028 0.0001985555 0.00021306239
0.000222753 0.00024092227 0.00024945714 0.00024108744 0.00023097073 0.00023514095 0.00023748037 0.00026172536
0.00026937723 0.00028280923 0.00026051566 0.00022863346 0.0002063683 0.0002036984 0.0001862293 0.00017229361
0.00016354298 0.0001632537 0.00016607161 0.0001664809 0.00026815452 0.0002681078 0.00026785134 0.00026487894
0.0002609811 0.00026354712 0.00024702345 0.00022026483 0.00021027698 0.00019889226 0.00018202681 0.00016698777
0.00016207328 0.00015881321 0.00016400461 0.00018448774 0.00018875112 0.00017754664 0.00020028892 0.00023140351
0.00024673692 0.00025769364 0.00026415198 0.0002669802 0.0002729457 0.00027132244 0.0002701273 0.00026829494
0.00029403836 0.00029400844 0.00029327368 0.00029133682 0.00028151943 0.00027260746 0.00025594968 0.0002422029
0.00022911256 0.00022575288 0.00021237538 0.00019943321 0.0001998167 0.00020978443 0.00019524031 0.00017432426
0.00017300007 0.00018997562 0.00020417258 0.00023567899 0.00026446208 0.00027968432 0.00028471986 0.00028763042
0.00029526188 0.00029702333 0.00029948814 0.0002939827 0.0002895867 0.00028960532 0.00029014875 0.00029029453
0.00028975162 0.0002987599 0.00030815642 0.00030520532 0.00030162086 0.0002990171 0.00029178965 0.00027842255
0.0002588415 0.00022591483 0.00019319524 0.00021466814 0.00023280586 0.00026685983 0.0002824748 0.00028902479
0.00029122483 0.00030896082 0.000291542 0.000287873 0.00028653035 0.00028639333 0.00028820118 0.00028962368
0.00013076945 0.00013077768 0.00013065895 0.00013017871 0.00012792782 0.00012847678 0.00012531593 0.00013602331
0.00014028484 0.00014342273 0.00013724297 0.000118121 0.00012314848 0.00011081112 9.295894e-05 0.00010516011
0.00010785436 0.00013153623 0.00013426105 0.0001282334 0.00012861582 0.00012658571 0.0001341025 0.00013619036
0.00013555307 0.00013414098 0.00013094551 0.00013067873 0.00018788465 0.00018790479 0.00018774717 0.00018631593
0.00018161429 0.00017412646 0.00016714189 0.000149914 0.00013540627 0.00014064372 0.0001432458 0.00013523365
0.00012579258 0.000121922305 0.000113029586 0.00011752241 0.00013483284 0.00016213265 0.00017393359 0.00017256827
0.00017748853 0.00018600342 0.00018640558 0.00019090048 0.00018820203 0.00018743888 0.00018798387 0.00018787588
0.00016405371 0.000164055 0.00016426985 0.00016339163 0.00016193384 0.00015898187 0.0001663547 0.00016392866
0.00015291925 0.00015299737 0.00014684627 0.00013874788 0.00014270977 0.00014979296 0.0001462748 0.00013880247
0.00015241178 0.00015856557 0.00016273189 0.0001623138 0.00015972837 0.00015964091 0.00015509002 0.0001585993
0.00016194861 0.00016357141 0.00016369224 0.00016403692 0.00011782162 0.00011781954 0.000118364944 0.000117764415

exp_avg f4 [128, 128]
00000000: 9d3d 72ba 49fa 973a ad9c 1cbb 3159 34ba
00000010: 309d 033b 0de1 b439 f165 13bb 8a8f 69ba
00000020: 9799 423b 36bd 44b9 5ebe b039 5cd0 05b7
00000030: 12e3 fb38 9b56 bfba 8f2b f139 7acd 313b
00000040: 43c3 f6b9 f684 04bb e025 fc3a 3d8b d537
00000050: 6879 62ba 94cb 18bb 3948 1f3b e7f1 de39
00000060: 5805 be3a ac98 213b 5930 61ba fe9d bcba
00000070: 078f fd3a 5bfe deba eaaf 32bb 30fd 92ba
00000080: 5606 053b 8ef9 0fbb fb9d 9bb8 8e0e f23a
00000090: 2975 eb3a 6aaf e7ba 5f24 573b 21c0 d3ba
000000a0: 4999 8d39 4577 44b9 a3b1 d63a c3dc 8bb9
000000b0: 3ff8 a63b 60e9 d338 4328 733b cb80 09bb
000000c0: 15cb 213b ba06 803a d1e9 dd3a f8fc 5b3b
000000d0: 2f7a c1ba 2676 b3ba 4770 d83a 17b0 193a
000000e0: 4974 173b 6720 653a 2272 6439 31c1 053b
000000f0: 0850 2e3b 064b 043b fee6 1abb f7d9 3c3b
00000100: 10ef ec3a 1b5a 263b cceb 24bb c952 21bb
00000110: fea9 f8ba 136f a53a fe17 5a3b b782 463a
00000120: be61 8b3a a8ef 7aba be25 273a 99bf 823a
00000130: cc65 653b 18a3 e0b9 8840 4d3a 0ae1 c9ba
00000140: 8284 5d3a c586 d73a 84a3 4b3a b74e 27bb
00000150: 0cb5 943a 6077 f438 67ad b1ba 71c7 0e3b
00000160: b4dc 89bb 72d8 273b 4e38 5abb 02db f6ba
00000170: de47 113b 3130 a13a b69f d7ba 3de4 edba
00000180: 59ab 943a d2de 1c39 cec8 45bb af97 4d3b
00000190: 97f0 033b aab1 9dba 849a 0c39 5540 d0ba
000001a0: bc1e dc3a 431e 00bb f9a0 0b3b 38cb 4f3b
000001b0: a7a9 36bb 2702 4bbb bdfc fc3a a7d6 3c39
000001c0: 6d88 953a b271 0cb9 7fd4 ccb8 8894 ec3a
000001d0: b003 ac3a 6406 a539 c951 33bb a1ff 5ebb
000001e0: bf8a 83ba 1555 c239 11d2 a6ba e28f 55bb
000001f0: 16eb feb9 7aba ca3a 7480 b23a c9ad 44ba
00000200: 2883 a1bb 000c 80ba 9bac 673b 282f e3ba
00000210: aa2a 1a3b b638 c1bb 53c8 393b 14a6 133b
00000220: 406e a9bb c786 d23a cc00 293b 03b0 843b
00000230: 6cdc 313b f455 88bb da5b 023b 42f9 cfba
00000240: 255a f03b 0b45 08bc e2c7 093c fb97 02bb
00000250: ceb3 aabb 2725 8f3a 9a27 9d3b 18fb 5bbb
00000260: 9e19 bcbb 633a 8dbb 2a7f 3bba df5b db3b
00000270: 8564 fc3a ec2e 2fbb 666a 01bb 9383 0d39
00000280: 53c9 7cbb fe41 4a3b 9e1a b33b 0fdf 003c
00000290: 5ffb c63a da9f 413a 4ab6 373b 7139 733b
000002a0: 130b d6bb 1695 c83b 1eeb 143b 06a4 f5ba
000002b0: fa67 633b 121e 943b 357d 01bb 5e53 a0b9
000002c0: 56b7 5d3b 293f b9bb 192f c3ba 32a1 c2ba
000002d0: b338 39ba 5d52 233b 193d 573b 7b22 653b
000002e0: a816 5e3a 815b e1b8 32e8 0fbb 0377 bf3a
000002f0: 4f1d d239 da72 24ba 473c 253b d186 c1b9
00000300: 7a67 c2ba 083d bd3a 39a1 efba aae5 333b
00000310: c18e a0b9 89bf 77bb c839 793b 1d03 b3bb
00000320: 73fc 32ba d2ac 71b9 4456 b4bb 4e43 9239
00000330: b718 abba 7e8c 203a bfda 53bb 303d 1e3b
00000340: cc1b 41ba 829d 043c 3389 fdb9 20ef 983b
00000350: 9c03 4dbb 3ec3 35bb 084d e93a ae19 9fbb
00000360: bd8a aabb 45d9 a13b 6b24 453b 7789 663b
00000370: 8d96 a1b9 583f eb3b 333d 4839 aabd 00bc
00000380: 7a1b 82bb f12d da3b 9656 53bb 5950 5abb
00000390: 2ea6 983a a72e a7ba 8abe f13b d961 333b
000003a0: 4c53 b3ba 264b 4e3a c4c2 c3bb 78ec 36bb
000003b0: 7a5b 04bb 3301 3dbb fbb0 1f3c 23d9 68bb
000003c0: 6382 79bb 7e37 9cbb 2ccf 223b cab1 3cba
000003d0: a1b4 b7bb e117 013c c081 fcb8 bfbb 28bb
000003e0: 0bcc b839 37d2 b9bb 15ce 40bb 06bb 9a39
000003f0: ae7c 0dbc 6247 99bb 2f78 003b b376 803b
-0.00092407485 0.0011594977 -0.0023897097 -0.00068797456 0.0020082705 0.0003449995 -0.0022491182 -0.00089096336
0.0029693597 -0.00018762503 0.0003371117 -7.97593e-06 0.00012010908 -0.0014597954 0.00045999556 0.002713053
-0.00047066258 -0.0020220852 0.0019237362 2.5456417e-05 -0.0008639307 -0.0023314701 0.0024304523 0.0004252337
0.0014497442 0.002465765 -0.0008590273 -0.0014390347 0.0019344994 -0.001701306 -0.0027265497 -0.0011214372
0.0020297966 -0.0021968815 -7.420402e-05 0.0018467472 0.0017963994 -0.0017676179 0.0032828075 -0.0016155281
0.00027007822 -0.00018736448 0.0016379844 -0.00026676626 0.005095511 0.000101047335 0.0037102855 -0.0020981308
0.0024687697 0.000976763 0.0016930645 0.003356753 -0.0014761145 -0.0013691827 0.0016512953 0.0005862726
0.0023110083 0.0008740485 0.00021786292 0.002040934 0.0026597995 0.002018632 -0.0023636217 0.002881644
0.0018076617 0.0025383297 -0.002516496 -0.0024615994 -0.001897156 0.0012621604 0.003327846 0.00075725786
0.0010633988 -0.0009572455 0.00063761685 0.0009975313 0.0035003303 -0.00042846124 0.00078297453 -0.001540215
0.0008450226 0.0016443363 0.0007768201 -0.0025529095 0.001134546 0.00011657062 -0.0013555706 0.0021786357
-0.004207218 0.002561119 -0.003329772 -0.001883358 0.002216808 0.0012297687 -0.0016450796 -0.0018149685
0.001134257 0.00014960326 -0.0030179503 0.0031370928 0.0020132416 -0.0012031097 0.00013409002 -0.0015888313
0.0016793828 -0.0019549287 0.0021305664 0.0031706821 -0.0027872117 -0.0030976625 0.0019301396 0.00018009041
0.0011408456 -0.00013393795 -9.7670585e-05 0.0018049637 0.0013123658 0.00031476014 -0.002736198 -0.0034026878
-0.0010035856 0.00037065955 -0.00127274 -0.0032586982 -0.00048621808 0.0015466951 0.0013618604 -0.00075027026
-0.004928965 -0.0009769201 0.0035350684 -0.0017332779 0.0023523965 -0.005896653 0.0028348162 0.002252941
-0.0051706135 0.0016061895 0.0025787828 0.0040493025 0.0027139438 -0.004160637 0.0019891174 -0.0015867131
0.007334965 -0.008317242 0.008409472 -0.0019927013 -0.0052094227 0.0010921106 0.0047959806 -0.0033566412
-0.0057403585 -0.0043099388 -0.0007152433 0.0066943015 0.0019256031 -0.0026730848 -0.0019747256 0.00013495823
-0.0038572147 0.0030862088 0.0054658195 0.007865681 0.0015181116 0.00073861855 0.0028032237 0.0037113095
-0.006532082 0.006121288 0.0022723149 -0.0018740899 0.0034699426 0.004520186 -0.0019758467 -0.00030579692
0.00338312 -0.005653281 -0.0014891356 -0.0014849065 -0.0007065639 0.0024920919 0.0032842814 0.003496318
0.0008472004 -0.0001074588 -0.0021958468 0.0014607612 0.00040076158 -0.0006273218 0.002521293 -0.00036912275
-0.0014831864 0.0014437744 -0.0018282301 0.0027450123 -0.00030623938 -0.0037803373 0.0038028825 -0.0054630176
-0.0006827779 -0.00023047932 -0.0055034477 0.00027897436 -0.001305363 0.00061244506 -0.0032326428 0.0024145357
-0.0007366508 0.008094193 -0.00048358142 0.004667178 -0.003128267 -0.0027734782 0.0017799446 -0.004855356
-0.005204527 0.0049392306 0.0030081521 0.003517715 -0.00030820482 0.007179182 0.00019096285 -0.007857719
-0.0039705606 0.0066583087 -0.0032247654 -0.003331205 0.0011646205 -0.0012754992 0.0073774504 0.0027371554
-0.0013681441 0.00078694744 -0.0059741456 -0.0027911942 -0.0020196126 -0.0028839826 0.009746785 -0.0035529814
-0.0038072101 -0.0047673574 0.0024842722 -0.00071981235 -0.0056062494 0.007879228 -0.00012040464 -0.002574667
0.0003524724 -0.0056708115 -0.002941971 0.00029512512 -0.008635683 -0.004677699 0.0019602885 0.0039204

exp_avg_sq f4 [128, 128]
00000000: 604a c138 cc70 6b38 134e 8b38 a4d4 8938
00000010: a3bb 3e38 49b8 5338 18bd 1c39 8c62 7238
00000020: 2740 8d38 87ea 8b38 38d1 3b38 52e0 7738
00000030: f154 7438 8ec0 a738 e740 5638 3de5 8038
00000040: e863 7138 1cea 8438 c24c a238 c802 7a38
00000050: a447 7038 76c3 6638 0d5c 9f38 a702 a238
00000060: 4be4 6a38 8824 6038 eed7 9338 f314 8438
00000070: 1e10 ef38 5b10 a438 c9ee f338 06db 4838
00000080: 38f6 3b38 af9e 8338 c4fa 8138 7988 8c38
00000090: 4dd8 ef38 cf50 eb38 be21 7738 3842 6538
000000a0: 3e29 8038 9a08 8238 a7ea da38 cd3b ff38
000000b0: fe4c 9a38 765c 6138 b1bc 3039 f0f3 c338
000000c0: b62b 9338 8aa8 5638 e0cf 8f38 797e d338
000000d0: a0f4 dd38 8207 8838 4aed f538 e71c f038
000000e0: 8ede 7838 23ae 6938 f8f7 4938 ac91 5e38
000000f0: 03dc d238 b1cd f538 f493 a138 5609 8938
00000100: 41da 7e38 24d6 0139 e506 4339 57ac 5e38
00000110: 9932 ae38 efc2 2838 a728 9538 8ab2 be38
00000120: 5f61 7338 3b9c 4a38 8319 8f38 15e2 9f38
00000130: f48b 7a38 2518 1039 459b 2339 f2d8 7638
00000140: d8a0 7c38 5174 5e38 7197 aa38 07ef 8d38
00000150: a99a 4638 8dfc 8e38 81d3 7838 c21b cd38
00000160: 5f73 0939 e0ec 8338 1609 a938 08f8 6838
00000170: 4374 ab38 8fa2 a938 6a46 8738 a814 b838
00000180: 6c67 7438 0a6b 9338 b51e 8838 b42e a538
00000190: ddc3 9338 fbd8 7538 d670 0539 14d7 6f38
000001a0: 0985 8038 c40e 9438 b093 8638 8b3c cd38
000001b0: 34b7 8738 f38c bd38 9dcc 7f38 1646 3038
000001c0: b916 dc38 fb6e c638 b202 6b38 8d50 8038
000001d0: d8c9 6838 9f6c 3539 b5b0 a638 ab48 b238
000001e0: b251 eb38 e39c 8338 2c01 5038 8846 ba38
000001f0: b90b a538 d631 2439 0d2e 8438 a57f 9038
00000200: a15e 4639 4d60 cb38 4120 9639 7b9f 6a39
00000210: eb3f 0039 ab26 8e39 df35 7739 d98a 3939
00000220: 2175 ab39 52c6 0239 10ec 6c39 a9ef 8339
00000230: 6712 9639 0b04 5e39 935f 8639 5b64 7639
00000240: 551a 4339 5e3e 5e39 f8f0 4739 53e5 8839
00000250: db23 c339 32f8 5b39 5ad1 9039 10ef 8239
00000260: dea9 9039 cc5e 7e39 d023 9639 46ae 8639
00000270: c3c2 5d39 a367 3539 6ebb b439 092a 6c39
00000280: 65b9 3839 5618 c539 cb8a 8339 e8ae 3139
00000290: 606d 4739 9361 ae39 cc3f 3239 cad0 7339
000002a0: bdb0 9339 08c1 7539 2bf0 6b39 61f9 0b39
000002b0: 6e04 8839 0136 4039 e7b6 8339 3827 9f39
000002c0: 3228 9539 1a4b 7b39 1ae6 a939 3c80 1939
000002d0: a162 5a39 f354 df39 4b20 9b39 6f30 7c39
000002e0: ffec f638 a945 9e39 5c85 4739 10ab 1139
000002f0: 0522 9739 cc70 7439 1164 9539 e816 a139
00000300: 6543 ca39 d0ee 9739 785a 8d39 97f2 4739
00000310: f78c 5f39 cc01 5339 d6c7 8b39 0732 1739
00000320: 493f 8039 c8ee 0939 0bfc 3d39 af1d ef39
00000330: d3d4 b639 a8eb 2539 48b2 8039 2e67 8939
00000340: 28f1 2a39 d701 8e39 3c8d 9139 fc4d 9c39
00000350: 0301 3839 c36e 5a39 0d7a 6c39 d434 ac39
00000360: 12c7 7339 46be 1139 d727 9239 84cb c739
00000370: 5073 9a39 9d19 9f39 bd1e a939 d5d6 6839
00000380: 7c4b a239 5d09 6d39 3b26 4f39 6c9e 9c39
00000390: 45af af39 6011 5739 a928 8039 7bd8 c739
000003a0: 09a3 e138 64e6 8139 cd1a 9439 da96 a139
000003b0: dc85 8739 4e41 6c39 0b4a 7d39 d6b1 3d39
000003c0: f505 4639 03c2 3739 4fa2 8239 796d 4f39
000003d0: 31c3 9139 f5bb 8939 0f82 9e39 d109 9239
000003e0: 732d 2639 f95b 8139 23e6 1b39 ca0b a139
000003f0: 4404 3439 e156 8239 e010 3039 4c3b 4439
9.2168106e-05 5.6133416e-05 6.642579e-05 6.5722765e-05 4.547428e-05 5.047795e-05 0.00014947762 5.7789075e-05
6.735353e-05 6.6717206e-05 4.4779124e-05 5.9098304e-05 5.825324e-05 7.999047e-05 5.108202e-05 6.1462146e-05
5.7551923e-05 6.337857e-05 7.739059e-05 5.9607235e-05 5.728718e-05 5.501831e-05 7.5988566e-05 7.725256e-05
5.6002562e-05 5.3439784e-05 7.049726e-05 6.2981526e-05 0.0001139941 7.823176e-05 0.0001163162 4.7887697e-05
4.4813583e-05 6.276124e-05 6.197908e-05 6.70114e-05 0.00011436697 0.00011220725 5.8920814e-05 5.4659526e-05
6.1111976e-05 6.200485e-05 0.000104387575 0.00012170486 7.357633e-05 5.373029e-05 0.00016854961 9.3437615e-05
7.017648e-05 5.117854e-05 6.857491e-05 0.000100848214 0.00010583666 6.486384e-05 0.00011726709 0.00011449475
5.9335078e-05 5.5713706e-05 4.8153073e-05 5.3064592e-05 0.00010054561 0.000117208234 7.704637e-05 6.534408e-05
6.0761584e-05 0.00012382172 0.00018599218 5.308943e-05 8.306391e-05 4.0235867e-05 7.112446e-05 9.0931615e-05
5.80264e-05 4.8306054e-05 6.823523e-05 7.623822e-05 5.9734986e-05 0.00013741905 0.00015602734 5.8853017e-05
6.023128e-05 5.3037253e-05 8.13444e-05 6.767926e-05 4.7350917e-05 6.818129e-05 5.9324786e-05 9.780332e-05
0.00013108317 6.290688e-05 8.06024e-05 5.5544107e-05 8.175571e-05 8.088827e-05 6.450417e-05 8.777651e-05
5.8270452e-05 7.029444e-05 6.490705e-05 7.876512e-05 7.0459886e-05 5.861463e-05 0.00012725903 5.7182348e-05
6.128295e-05 7.05994e-05 6.417127e-05 9.786439e-05 6.471426e-05 9.038476e-05 6.09873e-05 4.2026943e-05
0.0001049465 9.4620475e-05 5.6030876e-05 6.1185194e-05 5.5501092e-05 0.0001730197 7.948411e-05 8.501237e-05
0.0001122089 6.275789e-05 4.9592156e-05 8.8823086e-05 7.8699966e-05 0.00015658824 6.302828e-05 6.890231e-05
0.00018918003 9.697732e-05 0.0002863426 0.0002237539 0.00012230843 0.0002711316 0.00023575824 0.000176947
0.0003270293 0.00012471646 0.00022594654 0.00025164828 0.0002862394 0.00021173076 0.0002562968 0.00023497774
0.00018606459 0.00021194803 0.00019067887 0.000261108 0.00037220013 0.00020977927 0.000276218 0.00024973648
0.0002759238 0.00024258642 0.00028636912 0.00025688316 0.00021148757 0.00017300113 0.0003447192 0.00022522373
0.00017616672 0.000375929 0.00025089676 0.00016945193 0.00019018864 0.00033260565 0.00016999169 0.00023252066
0.00028169705 0.0002343693 0.00022500816 0.00013348974 0.00025943242 0.00018330665 0.0002512254 0.00030356064
0.00028449442 0.00023965203 0.0003240563 0.00014638988 0.00020826842 0.00042597167 0.00029587964 0.00024050636
0.00011774338 0.0003018801 0.00019027799 0.00013892003 0.0002882631 0.00023311673 0.0002849405 0.0003072538
0.00038578655 0.00028978894 0.0002696102 0.0001906849 0.00021319451 0.00020123197 0.00026661035 0.00014419119
0.00024461214 0.00013154291 0.00018118338 0.00045607748 0.00034872312 0.00015823415 0.00024546892 0.0002620755
0.00016302301 0.0002708572 0.00027761783 0.00029812742 0.00017547984 0.00020831362 0.00022552181 0.00032845757
0.00023248445 0.0001389916 0.00027876973 0.0003810787 0.00029459083 0.00030345927 0.00032257094 0.00022205275
0.00030955288 0.0002260557 0.000197553 0.00029872672 0.00033509187 0.0002051047 0.00024444357 0.00038117528
0.00010759204 0.00024776452 0.00028248728 0.00030820706 0.0002584894 0.00022531042 0.00024155543 0.00018090694
0.0001888497 0.00017524515 0.00024916462 0.0001978184 0.00027801984 0.00026270715 0.0003023301 0.00027854604
0.00015847925 0.00024673322 0.00014867685 0.00030717097 0.00017167727 0.00024860262 0.00016790954 0.00018714106

exp_avg f4 [128]
00000000: f709 293b 8abc 36bb ca8a 2fba e4a2 0c3b
00000010: ebdc bc3b 7010 0cbb 1793 5bbb cd6c 9e3a
00000020: 7b25 a6bb dfa4 0a3b cb8e a5bb 5810 93bb
00000030: 9de9 b03a 005c b23b 7395 ce3a aeca 9aba
00000040: 6d36 ee39 65f4 ea3a 4a44 693a 6197 873b
00000050: d914 07bc 358e 943a f292 da3b b0e7 3a39
00000060: 5a55 3eba c460 9dbb 994a c43b 7f35 733a
00000070: 84b1 3339 afd2 60ba 24da 5d3b ca7c 8b3b
00000080: 90d9 0ebb 46ad 623a 0260 9f3a 7abd 613a
00000090: 35ff ce3a 7b5f 06bc 83f6 593a b066 ab3b
000000a0: 0d20 0abc 7b6f 643a 4a3e 04bc 22d7 04bb
000000b0: 9db1 133c fa98 2d3a 434b 1a3a b07d 8a3b
000000c0: f5c9 813b 4720 f43b 04aa fcbb 6f83 19ba
000000d0: 0a77 5cba 7fdc 013c 84a0 c3ba 70f2 293b
000000e0: 3ba9 07b9 2ddb c5bb 780b 133b 4035 3bbb
000000f0: 819d 953b 6dd9 83bb d112 3b3a 43ef 1cbb
00000100: a2fc 47bb 0d49 f9ba f5dc 043b 9f8a 32ba
00000110: c164 1d3c a0d0 59bb 5815 cb3b 716f b0ba
00000120: fc8d a4bb 67d4 c03a eb46 01bb 21fd b2bb
00000130: 314b 293a 48d4 d8ba 55b2 573b d5dc ce3a
00000140: 0a38 203b 7486 f73b a1b7 1cbb 62ad 4bbb
00000150: 22d5 76bb 4a42 c73b f46d 9bbb 88d1 78bb
00000160: 8ce7 ccbb bd0d 5fbb be23 e2b9 0eb7 063c
00000170: 48b3 7d3b 62dc da39 d82e 3cbb dd58 ffb8
00000180: 9e9f 48bc 5dbf 6bbb 74ad 743a a194 07bb
00000190: 270b 83bb ef4f 403b 313b 063b 39c4 fc3b
000001a0: f503 ab38 2eec 293c 6120 9639 51c0 d13a
000001b0: 201a 1d3b 755a 433c af67 a73b f372 f8ba
000001c0: ab2c adbb 45f2 af3a bb85 11bb 2c6a abba
000001d0: 26e2 89bb c13e 403b b550 493b e8d0 1abb
000001e0: 0cad bb3b 660b 32bb 1acf 87ba f192 fb39
000001f0: b72b 2bb9 54e1 cdbb 68c9 c3bb d6c1 203c
0.0025793293 -0.0027883374 -0.00066964014 0.0021459395 0.00576364 -0.0021372102 -0.003350442 0.0012086869
-0.005070386 0.00211554 -0.0050524226 -0.0044880323 0.0013497357 0.005443096 0.0015761092 -0.0011809671
0.00045435448 0.0017925618 0.00088984205 0.004137919 -0.008244717 0.0011333885 0.0066703493 0.00017824653
-0.0007260643 -0.004802795 0.005990338 0.0009277686 0.000171369 -0.0008576316 0.0033851946 0.0042568194
-0.0021797158 0.00086470356 0.001215935 0.0008611303 0.001579261 -0.008201475 0.0008314626 0.005230747
-0.008430493 0.00087141216 -0.0080714915 -0.002026983 0.009014514 0.00066222216 0.00058858487 0.004226409
0.0039608427 0.007450137 -0.007710697 -0.0005856072 -0.0008410072 0.0079261055 -0.0014925157 0.0025931858
-0.00012937647 -0.0060380907 0.0022437256 -0.0028565675 0.004565895 -0.004023722 0.0007136288 -0.0023946322
-0.003051557 -0.0019018963 0.0020273302 -0.0006810817 0.009606541 -0.0033235922 0.0061976127 -0.0013460947
-0.0050218087 0.0014711738 -0.0019726108 -0.005462304 0.0006458043 -0.0016542757 0.003291269 0.0015782366
0.0024447464 0.00755387 -0.0023913162 -0.0031078686 -0.0037663658 0.0060809003 -0.004743332 -0.0037966687
-0.0062531885 -0.0034035288 -0.0004313271 0.008222355 0.0038711596 0.00041744398 -0.0028714444 -0.000121758996
-0.012245087 -0.0035972216 0.0009333708 -0.0020687955 -0.003999132 0.002934452 0.0020482058 0.0077138213
8.1546525e-05 0.010371251 0.00028634354 0.0016002749 0.002397187 0.011923422 0.0051087956 -0.0018955156
-0.005284866 0.0013423642 -0.0022204954 -0.0013077906 -0.004207867 0.002933428 0.003071827 -0.0023623053
0.005727416 -0.0027167439 -0.0010361404 0.0004798393 -0.00016324116 -0.0062829647 -0.005974937 0.009811839

exp_avg_sq f4 [128]
00000000: 83c4 9438 0627 dd39 5d9c 2e39 1097 8c39
00000010: 2129 9a39 b5d3 9739 0f1f 0939 fd02 4539
00000020: c505 2c39 3219 f738 8d99 ab38 ffce 373a
00000030: 8050 a739 d34d 2f3a 69ff 1839 eb65 1c39
00000040: 496c 2739 7a96 3f39 13e4 6b39 73f7 9e39
00000050: 3425 f838 df0a 1939 adcc 3e3a 4caf 4b39
00000060: 0a4c a038 2fd2 1b39 e67e 513a c0a4 c138
00000070: f55d 1839 08d5 1a39 c889 0639 95be 9d39
00000080: 6e7e 8738 d2d0 7e38 8e65 5339 36dd 3539
00000090: 5893 1639 a3ab 0c3a e820 a639 7c7f 2b3a
000000a0: 4c93 8539 809a 0039 95be 073a 8cbc a738
000000b0: b326 463a ba1d 3739 12a2 9c39 ba25 5039
000000c0: a91f 8639 fc49 9b3a a7ac e339 8db8 9e38
000000d0: da81 f239 5e56 ca39 06ca 2a39 b373 2f39
000000e0: 4c44 9439 d912 1a39 6d24 4139 d971 3639
000000f0: a20a 4739 2bf6 9739 7977 5239 5470 873a
00000100: bdae b239 60e6 1439 d97a 1239 a0c9 b438
00000110: b876 073a c40e 6e39 c67d a239 7077 1f39
00000120: 7429 7139 e862 3439 2b74 0e39 3932 aa39
00000130: 501a 9739 4d4a c938 ef9c 2539 ea22 9b39
00000140: bfeb a339 6394 063a e4dd 2b39 ecd2 4739
00000150: 79ff 9d39 90c7 6c39 b532 903a 0a0e ab39
00000160: dbbf c239 1e14 3639 7510 6d39 95f3 ab39
00000170: 66ef ac39 b52f 1339 1a6e c638 dd9b 2139
00000180: f917 9c3a 0541 9f39 ff7f fb38 0a01 5339
00000190: 9797 5939 baa2 ea39 9e87 3a39 871b 3f39
000001a0: 4317 d838 d897 b339 7698 ab38 0abc 9c39
000001b0: d6c6 8639 2a83 ac3a ab93 ec38 69c0 1839
000001c0: 8f13 a739 cf3a f938 6192 2939 0a6b b839
000001d0: c2b6 393a 360f a438 17f6 d538 8cee 7239
000001e0: 1811 0139 2873 a239 cce2 8339 5189 2d39
000001f0: cf06 6939 7583 1b39 e4d2 af39 bf1b fd39
7.093793e-05 0.0004218148 0.00016652183 0.0002681543 0.00029403812 0.00028958698 0.00013076908 0.00018788497
0.00016405348 0.00011782571 8.1825165e-05 0.0007011741 0.000319127 0.0006687317 0.00014590997 0.00014915287
0.000159667 0.00018271236 0.0002249631 0.00030320472 0.00011832491 0.00014595267 0.0007278424 0.00019424892
7.643558e-05 0.00014860251 0.00079916266 9.233644e-05 0.00014530851 0.00014765945 0.00012830563 0.00030087368
6.460851e-05 6.0752798e-05 0.0002016036 0.00017343913 0.00014360005 0.0005366152 0.00031686504 0.0006542129
0.00025477482 0.00012264587 0.000517824 7.9983e-05 0.0007558867 0.00017463314 0.0002987539 0.0001985048
0.0002558206 0.0011847611 0.0004342545 7.568402e-05 0.00046254584 0.0003859279 0.00016287723 0.00016732402
0.00028279645 0.00014693606 0.00018419484 0.00017399284 0.0001898208 0.00028984374 0.00020071668 0.0010333159
0.00034080996 0.00014200201 0.0001396941 8.6206244e-05 0.0005167532 0.0002270295 0.00030992756 0.00015207916
0.00022998994 0.00017202983 0.00013585451 0.00032462346 0.0002882057 9.5982665e-05 0.00015794089 0.00029589917
0.00031265427 0.00051338057 0.00016390492 0.00019056693 0.00030135715 0.00022581057 0.001100144 0.00032626122
0.00037145507 0.00017364367 0.00022608212 0.00032797144 0.00032984762 0.00014036785 9.461884e-05 0.0001541222
0.0011909 0.00030375287 0.00011992454 0.00020122915 0.00020751204 0.000447532 0.00017788864 0.00018225434
0.000103040154 0.00034254673 8.1823135e-05 0.0002989474 0.00025706616 0.0013161649 0.00011280862 0.00014567528
0.00031867294 0.00011884199 0.00016171626 0.00035174965 0.0007084423 7.822963e-05 0.00010202469 0.00023167784
0.00012308767 0.00030984846 0.00025155244 0.0001654972 0.00022223148 0.00014830923 0.00033535727 0.00048276593

exp_avg f4 [128]
00000000: 0f0a 293b 93bc 36bb 1e8b 2fba d8a2 0c3b
00000010: e7dc bc3b 6c10 0cbb 2493 5bbb dc6c 9e3a
00000020: 7625 a6bb e7a4 0a3b cb8e a5bb 7010 93bb
00000030: a8e9 b03a 055c b23b 6e95 ce3a bbca 9aba
00000040: 7f36 ee39 73f4 ea3a 4d44 693a 6397 873b
00000050: de14 07bc 308e 943a eb92 da3b 71e8 3a39
00000060: 3655 3eba c360 9dbb 984a c43b 7a35 733a
00000070: 0eb1 3339 95d2 60ba 2eda 5d3b cb7c 8b3b
00000080: 82d9 0ebb 7dad 623a 1060 9f3a 60bd 613a
00000090: 09ff ce3a 7a5f 06bc 6df6 593a a966 ab3b
000000a0: 0d20 0abc 526f 643a 503e 04bc 12d7 04bb
000000b0: a1b1 133c 0199 2d3a 334b 1a3a a77d 8a3b
000000c0: fcc9 813b 5f20 f43b fea9 fcbb 7283 19ba
000000d0: 0b77 5cba 7bdc 013c 86a0 c3ba 6cf2 293b
000000e0: 99a8 07b9 2ddb c5bb 890b 133b 4f35 3bbb
000000f0: 799d 953b 6ed9 83bb f812 3b3a 3aef 1cbb
00000100: a0fc 47bb 0b49 f9ba 0fdd 043b 9f8a 32ba
00000110: b364 1d3c 8ad0 59bb 4f15 cb3b 9f6f b0ba
00000120: fb8d a4bb 5fd4 c03a f546 01bb 2efd b2bb
00000130: 544b 293a 4ed4 d8ba 5bb2 573b d2dc ce3a
00000140: 0f38 203b 7086 f73b a7b7 1cbb 5fad 4bbb
00000150: 17d5 76bb 4042 c73b ec6d 9bbb 99d1 78bb
00000160: 8ae7 ccbb be0d 5fbb 9623 e2b9 0db7 063c
00000170: 4fb3 7d3b 8ddc da39 cd2e 3cbb 1a5a ffb8
00000180: 9e9f 48bc 5ebf 6bbb 78ad 743a 9594 07bb
00000190: 200b 83bb 0550 403b 443b 063b 31c4 fc3b
000001a0: 9002 ab38 2cec 293c 0d20 9639 45c0 d13a
000001b0: 301a 1d3b 8a5a 433c a567 a73b f372 f8ba
000001c0: ab2c adbb 49f2 af3a a485 11bb 3a6a abba
000001d0: 27e2 89bb cb3e 403b b650 493b d4d0 1abb
000001e0: 0bad bb3b 540b 32bb 02cf 87ba 9193 fb39
000001f0: b22b 2bb9 5be1 cdbb 70c9 c3bb ddc1 203c
0.002579335 -0.0027883395 -0.00066964503 0.0021459367 0.0057636383 -0.0021372093 -0.003350445 0.0012086886
-0.0050703837 0.0021155418 -0.0050524226 -0.0044880435 0.0013497369 0.0054430985 0.0015761086 -0.0011809686
0.000454355 0.0017925635 0.0008898422 0.0041379198 -0.008244721 0.0011333879 0.006670346 0.00017824933
-0.0007260622 -0.0048027947 0.0059903376 0.0009277683 0.00017136728 -0.0008576301 0.003385197 0.00425682
-0.0021797125 0.00086470676 0.0012159366 0.0008611288 0.0015792559 -0.008201474 0.00083146134 0.005230744
-0.008430493 0.0008714098 -0.008071497 -0.0020269793 0.009014518 0.00066222256 0.00058858393 0.0042264047
0.003960846 0.007450148 -0.0077106943 -0.00058560737 -0.0008410073 0.007926102 -0.0014925159 0.0025931848
-0.00012937411 -0.0060380907 0.0022437295 -0.002856571 0.0045658913 -0.0040237224 0.00071363105 -0.00239463
-0.0030515566 -0.0019018961 0.0020273363 -0.0006810817 0.009606528 -0.0033235871 0.0061976085 -0.0013461
-0.005021808 0.0014711729 -0.0019726132 -0.0054623103 0.0006458063 -0.0016542764 0.0032912705 0.0015782362
0.0024447476 0.007553868 -0.0023913176 -0.003107868 -0.0037663633 0.0060808957 -0.0047433283 -0.0037966727
-0.0062531875 -0.003403529 -0.00043132593 0.008222354 0.0038711613 0.00041744523 -0.002871442 -0.0001217613
-0.012245087 -0.0035972218 0.000933371 -0.0020687927 -0.003999129 0.002934457 0.0020482102 0.0077138175
8.154393e-05 0.010371249 0.0002863411 0.0016002735 0.0023971908 0.011923442 0.005108791 -0.0018955156
-0.005284866 0.0013423647 -0.00222049 -0.0013077923 -0.0042078677 0.0029334303 0.0030718273 -0.0023623006
0.0057274154 -0.0027167397 -0.0010361376 0.00047984396 -0.00016324109 -0.006282968 -0.005974941 0.009811846

exp_avg_sq f4 [128]
00000000: 87c4 9438 0a27 dd39 5f9c 2e39 0f97 8c39
00000010: 2029 9a39 b8d3 9739 0f1f 0939 fd02 4539
00000020: c605 2c39 3119 f738 9299 ab38 fece 373a
00000030: 8050 a739 d74d 2f3a 6cff 1839 ec65 1c39
00000040: 4b6c 2739 7d96 3f39 11e4 6b39 73f7 9e39
00000050: 2f25 f838 df0a 1939 aacc 3e3a 4baf 4b39
00000060: 0b4c a038 30d2 1b39 e87e 513a c2a4 c138
00000070: f85d 1839 0ad5 1a39 ca89 0639 98be 9d39
00000080: 6e7e 8738 d2d0 7e38 8f65 5339 34dd 3539
00000090: 5a93 1639 a0ab 0c3a e520 a639 807f 2b3a
000000a0: 4c93 8539 809a 0039 93be 073a 84bc a738
000000b0: b426 463a b81d 3739 13a2 9c39 b525 5039
000000c0: a91f 8639 024a 9b3a a8ac e339 93b8 9e38
000000d0: df81 f239 6256 ca39 06ca 2a39 b273 2f39
000000e0: 4544 9439 da12 1a39 7024 4139 d971 3639
000000f0: a30a 4739 2bf6 9739 7a77 5239 5670 873a
00000100: beae b239 62e6 1439 db7a 1239 a0c9 b438
00000110: b776 073a c70e 6e39 c87d a239 7277 1f39
00000120: 7229 7139 e562 3439 2d74 0e39 3832 aa39
00000130: 501a 9739 4d4a c938 ef9c 2539 e622 9b39
00000140: beeb a339 6694 063a e3dd 2b39 edd2 4739
00000150: 82ff 9d39 95c7 6c39 b932 903a 090e ab39
00000160: debf c239 1a14 3639 7610 6d39 94f3 ab39
00000170: 66ef ac39 b32f 1339 1d6e c638 e19b 2139
00000180: fb17 9c3a 0541 9f39 fb7f fb38 0701 5339
00000190: 9897 5939 b7a2 ea39 a487 3a39 871b 3f39
000001a0: 4217 d838 d697 b339 7398 ab38 0cbc 9c39
000001b0: dcc6 8639 2d83 ac3a ac93 ec38 69c0 1839
000001c0: 9213 a739 d03a f938 5d92 2939 0c6b b839
000001d0: c3b6 393a 340f a438 1af6 d538 90ee 7239
000001e0: 1611 0139 2873 a239 c8e2 8339 4c89 2d39
000001f0: cf06 6939 7583 1b39 e4d2 af39 be1b fd39
7.093796e-05 0.0004218149 0.00016652186 0.00026815428 0.0002940381 0.00028958707 0.00013076908 0.00018788497
0.00016405349 0.0001178257 8.18252e-05 0.000701174 0.000319127 0.0006687319 0.00014591002 0.00014915288
0.00015966703 0.0001827124 0.00022496308 0.00030320472 0.000118324875 0.00014595267 0.0007278422 0.0001942489
7.643559e-05 0.00014860253 0.0007991628 9.233646e-05 0.00014530856 0.00014765948 0.00012830566 0.00030087377
6.460851e-05 6.0752798e-05 0.00020160362 0.0001734391 0.00014360007 0.000536615 0.00031686496 0.00065421313
0.00025477482 0.00012264587 0.0005178239 7.998294e-05 0.0007558868 0.00017463311 0.00029875393 0.00019850473
0.0002558206 0.0011847618 0.00043425453 7.568407e-05 0.00046254598 0.00038592803 0.00016287723 0.000167324
0.00028279625 0.00014693607 0.00018419488 0.00017399284 0.00018982081 0.00028984374 0.00020071669 0.0010333161
0.00034081 0.00014200204 0.00013969412 8.6206244e-05 0.0005167531 0.00022702954 0.00030992762 0.00015207918
0.0002299899 0.00017202979 0.00013585454 0.00032462343 0.0002882057 9.5982665e-05 0.00015794089 0.00029589905
0.00031265424 0.00051338074 0.0001639049 0.00019056695 0.00030135742 0.00022581064 0.0011001445 0.0003262612
0.00037145516 0.00017364361 0.00022608213 0.00032797141 0.00032984762 0.00014036782 9.461886e-05 0.00015412226
0.0011909002 0.00030375287 0.00011992451 0.00020122911 0.00020751206 0.0004475319 0.00017788872 0.00018225434
0.00010304015 0.00034254667 8.182311e-05 0.00029894745 0.00025706633 0.0013161652 0.00011280863 0.00014567528
0.00031867303 0.000118842 0.0001617162 0.0003517497 0.00070844236 7.822961e-05 0.000102024715 0.0002316779
0.00012308764 0.00030984846 0.00025155232 0.00016549713 0.00022223148 0.00014830923 0.00033535727 0.0004827659

exp_avg f4 [64, 128]
00000000: ecff 3b3a e3c1 45ba be40 0eb9 c054 923a
00000010: 195a 743a 0f69 893a 3e98 51ba 321a 703a
00000020: 42b3 713a 8e4b 273a 0b5c 2a39 3577 39ba
00000030: 1310 653a 3bb1 263a 20f1 ecb9 62dc d8b9
00000040: d599 33ba 233a 823a 39e7 df39 f019 a738
00000050: 93f8 cf39 b3c0 473a 9c54 a0b8 98ab 383a
00000060: 6677 98b9 f558 713a 71e5 9139 cb12 8db9
00000070: d169 033a 65c2 22ba 9e30 b539 db0b 553a
00000080: 8f8c 89b9 8b6c 573a 49e8 92ba 0384 0bba
00000090: aa3e ff39 ee83 05ba 5fb3 0bba f397 24ba
000000a0: 6b0b e939 ce48 d9b9 4163 01ba 229b be39
000000b0: 884d 84ba 3e6e 643a 5d92 523a 4546 19ba
000000c0: f0ae e9b8 7caf 4539 45ea 363a 903f ab39
000000d0: 5c5b 54ba 2f5b e1b8 693c 95b9 8241 6cba
000000e0: ae91 0cba 967a f3b9 c7fb cb38 954f 2a39
000000f0: b78f 6fb9 2a29 043a 152c fab9 f0c1 91b9
00000100: 3863 0bb9 cb31 d538 53db e1b9 61cf b039
00000110: 470c 1dba 904b 513a 42c8 73ba f058 933a
00000120: 496b 55ba 22e6 323a 3595 8b3a 7d13 8b3a
00000130: 1145 80ba 2357 87b8 7e45 6a3a ec27 d938
00000140: 84f4 f639 5a33 7fba 8e8e 713a 5de7 fbb9
00000150: aa2f 663a 0ff1 833a dc94 e039 7d28 303a
00000160: 6052 abb9 1efb 7bba af83 333a aaf2 8739
00000170: fd3f b239 fe3b 8dba 7a68 d139 ace1 913a
00000180: 2961 e539 c818 31ba 0679 353a 1f0c 9339
00000190: 2dd4 66ba b687 7b3a 5940 81ba a98f 2d3a
000001a0: 4803 443a 4313 c5b9 e9cb 0aba 4813 d239
000001b0: 5824 2b3a 014f 6439 0cbd 6dba f066 4f3a
000001c0: e461 913a 0b81 923a 9039 18b9 5da1 2aba
000001d0: ffc1 233a d07e 90ba 0b53 0338 5fcf b339
000001e0: c97f 9cb6 aac7 c9b9 7b65 683a a06b 55b8
000001f0: 0b66 8c3a 5103 843a 3f80 86b9 3b28 4e3a
00000200: 236a 1338 4922 f8b7 b598 1cb8 5022 2a39
00000210: 2557 d638 a783 5539 08cc c937 febf 8d38
00000220: b624 0439 295d 3b39 4dc9 d739 656a 3cb9
00000230: af4d 5239 916d 9c39 1a9d 8ab8 729d 7eb9
00000240: 116a 84b8 e86c 9538 d505 afb7 5cd4 d8b7
00000250: 1190 b339 c3de 6638 e3b2 5cb8 bbeb 6539
00000260: eb59 3138 c055 5639 a065 bc39 ef09 abb9
00000270: 0d4c 1db7 42c1 6e38 3192 a737 482b 8d39
00000280: 0be0 55b9 b677 f038 a26a 0fb9 8f10 c7b9
00000290: 93d2 3936 cb6b 81b9 6d4a a7b9 d364 5cb9
000002a0: 26f8 08b8 99a9 93b9 c0d0 91b7 c07d 7039
000002b0: c44b b0b9 85e2 2739 735e 5239 8b3e 8839
000002c0: 4592 60b9 2702 2a39 6b3d 02b9 d502 5bb9
000002d0: 95d9 10b9 ea67 9ab9 74a8 c038 bbda 0538
000002e0: da3c c5b9 4a62 0939 95de 8039 a4b1 6f37
000002f0: 7eb8 2f39 164c 88b6 629f 8e38 cba7 4e38
00000300: 2aa5 7e37 0a6e b838 c50a 2938 408d c139
00000310: ee24 bbb7 eacd 7f39 f3c4 38b9 210e f138
00000320: a025 c7b8 2179 003a effb 2439 edf5 ba37
00000330: e8cd 12b9 81ea 7038 3d2e 8538 8e2d 5239
00000340: 1dca 103a 296e 30b9 f4ca 2fb8 2ab6 56b9
00000350: 3a04 4839 4cff 3239 a75f 45b8 6912 1539
00000360: 624c 64b8 a1fc 30b9 ad4a 2939 a887 9bb9
00000370: 3571 9cb9 a1a9 21b9 03ec fc36 66e0 6e39
00000380: 3b93 073a f133 01ba 9fd6 fa39 1515 dc39
00000390: 8ca8 30b9 ec34 e638 dcdc 2fb9 f60d f537
000003a0: d1c8 a236 51d8 8339 4772 5538 3e55 58b9
000003b0: 4b6e 3439 f6c6 6239 02e4 7ab9 5b17 5939
000003c0: 7b54 2239 5e19 2a39 bacd 33b8 80b3 f9b7
000003d0: 37be ca39 a43e ebb8 dfcb a6b9 ae3a 3f39
000003e0: 602b 19b9 a2d0 b3b8 7c2d 4639 71ba 40b9
000003f0: 5028 1d39 15f3 a537 e5d4 9fb9 80ab ba38
0.0007171619 -0.0007543845 -0.00013566294 0.0011164173 0.0009321287 0.001048358 -0.0007995403 0.0009159177
0.0009220132 0.0006381803 0.00016246752 -0.0007074953 0.0008738052 0.0006358807 -0.0004519308 -0.00041362928
-0.0006851231 0.0009935539 0.0004270615 7.968012e-05 0.0003966732 0.0007619962 -7.645154e-05 0.00070446124
-0.00029080658 0.0009206676 0.00027827502 -0.00026907618 0.00050130213 -0.00062087766 0.00034559233 0.0008127072
-0.000262354 0.0008217773 -0.0011208142 -0.00053221005 0.00048684079 -0.00050932064 -0.00053291576 -0.0006278746
0.0004444973 -0.0004144371 -0.00049357495 0.00036355207 -0.0010093907 0.0008713937 0.0008032674 -0.0005846958
-0.000111428904 0.00018852757 0.0006977658 0.0003266302 -0.0008100772 -0.0001074582 -0.00028464504 -0.0009012447
-0.0005362284 -0.00046439905 9.7266915e-05 0.0001624211 -0.00022846354 0.00050415343 -0.0004771656 -0.0002780105
-0.00013293035 0.00010165906 -0.00043078754 0.00033723845 -0.0005990904 0.0007983977 -0.0009299555 0.0011241715
-0.0008141292 0.00068244536 0.0010649326 0.0010610666 -0.0009786208 -6.453532e-05 0.0008936747 0.00010354802
0.00047102955 -0.000973513 0.0009214663 -0.0004804683 0.0008780906 0.0010066348 0.00042835518 0.00067199004
-0.00032677036 -0.00096123095 0.00068479305 0.00025930005 0.0003399848 -0.0010775325 0.00039941428 0.0011129878
0.00043750674 -0.0006755707 0.0006922636 0.00028047056 -0.00088054204 0.00095951126 -0.0009861096 0.00066208333
0.00074772956 -0.0003758912 -0.0005294667 0.00040068687 0.0006528548 0.00021773206 -0.00090690027 0.0007911762
0.0011091796 0.0011177374 -0.00014517293 -0.00065090304 0.0006246864 -0.0011024121 3.1310174e-05 0.00034296044
-4.6640384e-06 -0.0003848647 0.00088652194 -5.088339e-05 0.0010711564 0.0010071789 -0.00025654022 0.0007864271
3.514638e-05 -2.9579869e-05 -3.7335518e-05 0.00016225246 0.00010220547 0.00020362307 2.4056077e-05 6.759165e-05
0.00012602177 0.00017868415 0.00041157976 -0.00017968712 0.000200561 0.00029836272 -6.609615e-05 -0.0002428198
-6.314007e-05 7.125159e-05 -2.0864341e-05 -2.5848094e-05 0.00034248878 5.5043736e-05 -5.261869e-05 0.00021926958
4.228383e-05 0.00020440575 0.0003593387 -0.00032623063 -9.375636e-06 5.6923607e-05 1.9976027e-05 0.00026925863
-0.00020396725 0.0001146639 -0.00013677267 -0.00037968575 2.7689719e-06 -0.0002468511 -0.00031908174 -0.00021018395
-3.2656033e-05 -0.00028164385 -1.7382554e-05 0.00022935029 -0.00033625786 0.00016010746 0.00020062346 0.0002598654
-0.00021416794 0.00016213265 -0.00012420646 -0.00020886523 -0.00013813966 -0.0002945059 9.18665e-05 3.191338e-05
-0.00037620106 0.00013101954 0.000245799 1.428687e-05 0.00016758029 -4.0619734e-06 6.800775e-05 4.9270497e-05
1.5178035e-05 8.7943e-05 4.030277e-05 0.00036917068 -2.2309334e-05 0.00024395404 -0.00017620977 0.00011494407
-9.496068e-05 0.0004900862 0.00015734111 2.2287446e-05 -0.00014000351 5.7438858e-05 6.350547e-05 0.00020044131
0.0005523281 -0.00016825706 -4.1912266e-05 -0.00020476492 0.00019075061 0.00017070508 -4.7057543e-05 0.00014216606
-5.4430573e-05 -0.0001687878 0.00016144915 -0.00029664976 -0.00029838984 -0.00015417348 7.5376606e-06 0.00022781044
0.00051717804 -0.00049286993 0.0004784362 0.00041977377 -0.00016847457 0.00010977112 -0.00016771577 2.9212777e-05
4.8513543e-06 0.00025147435 5.0889586e-05 -0.0002063112 0.00017207225 0.00021627158 -0.00023926797 0.00020703433
0.00015480995 0.00016221913 -4.2868523e-05 -2.97667e-05 0.00038670163 -0.00011217341 -0.00031813883 0.0001823704
-0.00014607375 -8.574246e-05 0.00018899696 -0.00018380002 0.00014987704 1.9782727e-05 -0.00030485462 8.9011155e-05
