Bonus Exercise/exercise_11/lightning_logs/version_8/checkpoints/epoch=6.ckpt (torch_old, 353090 bytes, 24 tensors)

exp_avg f4 [128, 28]
00000000: 572b 45bb 8d60 45bb abf4 45bb 93ff 51bb
00000010: 651c 26bb d772 52ba 5742 413a 7472 45b8
00000020: 0e7d d9b9 3c85 00ba 38cf f5ba c805 e0ba
00000030: b78b 7cba 2508 0d38 5a55 bc3a 5761 753b
00000040: c8a7 403a 0dce a8bb 9f4e afbb 86d3 203b
00000050: 3b0a b03a 5488 0dbb 75b0 3abb 623b 48bb
00000060: 4f18 4fbb e4a7 87bb 5980 68bb 89fe 45bb
00000070: bbdf a03b 37f0 a03b df4a a03b 56f8 a33b
00000080: cce4 b43b dc4a 723b b3e3 473b 3645 6a3a
00000090: e54a 47bb 01c2 86ba 0f2a a03a 2c65 cb37
000000a0: 3d74 183a 570c 3a3b eaf3 9c3b 0fbe b83b
000000b0: 713b 6b3b 8852 9c3a 1c69 75b9 2692 13bb
000000c0: c6bc 20ba 97be 603a 9208 a43a d517 3c3b
000000d0: ae6f 983b ee39 9e3b 4eda 963b 4bef a03b
000000e0: c5ec ccba 1bef ccba 2b57 ceba 983f b3ba
000000f0: a0f1 13ba 2a9d 1aba 9604 dcba cc6a 97bb
00000100: 2e06 68bb 118b abb9 7bd8 483b 0047 813b
00000110: 2c6c 5d3b 1871 2d3b 8a4a b4b9 76e0 08bb
00000120: 229f 96ba dbb4 24ba ae70 0237 c691 70ba
00000130: 83e5 1abb 295d 3abb ce63 bfba 5d39 8bba
00000140: ecbc a4ba a7cc b8ba 2df5 c1ba 0ff2 ccba
00000150: 3462 793b c25e 793b af79 793b e9d1 4b3b
00000160: 69c1 713b 8cd6 c53b c2bc 0e3c 9d52 193c
00000170: 0751 533c 0287 323c fd2e a139 057b 72bb
00000180: 3fdf 0abc 3270 fcbb 3132 4b3b 40d3 503b
00000190: 569b 8639 6fe5 57bb ba7e 12bc dec5 53bb
000001a0: 2e89 703a 02fe d63a 8e0b 003b c62d 463b
000001b0: 8288 643b 352e 3b3b b9a2 793b 47dc 793b
000001c0: ada0 763a b1a3 763a 8dee 6e3a 6386 5b3a
000001d0: d856 693a db3d ceb9 778f 5638 a43c b23a
000001e0: daee 223a bf00 04bb 6985 7bbb 9eea 52bb
000001f0: 722b 23bb 85a0 48bb b654 6ebb 5789 48bb
00000200: d67f 14ba dc2e 68ba 282b 93ba 0ee5 44bb
00000210: e07e 1dbb 13a6 38ba 98db dab9 ef70 023a
00000220: 3bbf c13a a381 d93a 105f a43a 5ac1 763a
00000230: 3155 40b9 c131 42b9 8190 2db9 7931 a3b9
00000240: 7990 cd37 1c45 393b fce7 7b3b 4635 99b8
00000250: 19fd 3f3b 9be9 af3b 4d41 8a3b d7c5 9dbb
00000260: 606f 12bc 6fff 1abc 46b4 81bb 92da fc3a
00000270: 477f fc3a e014 f63a 6b18 903b 5dfc b63b
00000280: 95b9 c93a d3fe 96ba 034c a53a 213d 063b
00000290: 414a 5b3a 2ff7 aab8 80d4 07b8 de4f 3fb9
000002a0: 2899 8a39 8cdb 8c39 7c7e 8239 36dd 13b9
000002b0: b090 a3b7 4456 d43a 803e 803b be09 803b
000002c0: 95c1 e03b 1cbc fb3b d2b0 813b 567b 1837
000002d0: 33e6 a2bb af62 5abb 301e 123b 0972 23b9
000002e0: 3779 3bba b08b ffb9 7090 13bb 02e9 a3bb
000002f0: cfb0 b2ba eb3c e83a b309 e23a 9c9f 3b3b
00000300: 56c6 6b3b f920 273b fa30 933a d205 8e39
00000310: 0f08 32bb 2804 32bb 8764 33bb 2786 2ebb
00000320: 896f f4ba 3687 89ba 9faf c5b9 7386 b239
00000330: 7efc 343b 02a1 dab9 3be3 02bb f371 f43a
00000340: 9d0e a73b ba88 d93b 8b01 c53b d136 d33b
00000350: d873 833b aeaa 20b9 ef85 2cbb 9cf7 a0bb
00000360: ecb0 efba eba1 0f39 c047 90ba 7d98 82ba
00000370: eb3d 02b9 dbb7 5439 eedd afba fabf 30bb
00000380: 689b 883a 1c80 883a 51b2 893a e187 7a3a
00000390: 60bd 4a3a c1ba 573b 49f7 b93b 591d b03b
000003a0: 0b8b 623b 0722 2d3b d57b 083b d047 523a
000003b0: 7911 16bb fbe6 55bb e373 5fbb 8cb0 53bb
000003c0: 1176 a3bb 5f4e 55bb 37cb b63a 205e a13b
000003d0: 27c3 7a3b 655f fa3a 8222 013b e3e7 0e3b
000003e0: 78c8 f73a 2904 913a 43f2 6d3a b193 873a
000003f0: b804 a6ba 3203 a6ba 8295 a5ba d8a3 a1ba
-0.0030085647 -0.0030117363 -0.0030205648 -0.0032043203 -0.0025346514 -0.0008027977 0.0007372251 -4.7075053e-05
-0.00041482638 -0.0004902666 -0.0018753773 -0.0017091567 -0.0009633856 3.3624605e-05 0.0014368698 0.0037442052
0.000734922 -0.0051515163 -0.0053499485 0.002454014 0.0013430783 -0.002159615 -0.0028486524 -0.0030552973
-0.0031600182 -0.004139887 -0.0035476892 -0.003021153 0.0049094833 0.0049114483 0.004891738 0.005003969
0.005520439 0.003697089 0.003050071 0.0008936705 -0.003040963 -0.0010281206 0.0012219566 2.4246598e-05
0.00058156607 0.0028388703 0.004789819 0.005637891 0.0035893584 0.0011926452 -0.00023404177 -0.0022517531
-0.0006131645 0.0008573322 0.0012514761 0.0028700728 0.004651985 0.004828683 0.0046036607 0.0049113384
-0.0015634528 -0.0015635224 -0.0015742531 -0.0013675569 -0.000564361 -0.0005898053 -0.0016786035 -0.0046208855
-0.0035404074 -0.00032719274 0.003064661 0.0039452314 0.00337864 0.0026465114 -0.0003438781 -0.0020885742
-0.0011491517 -0.0006283053 7.774839e-06 -0.00091769954 -0.0023635335 -0.0028436875 -0.0014601888 -0.0010621954
-0.001256851 -0.0014099077 -0.00147978 -0.0015636104 0.0038052918 0.0038050865 0.0038066914 0.0031100458
0.0036888963 0.006037539 0.008711996 0.009358075 0.012897736 0.010896446 0.00030743322 -0.0036999595
-0.008476078 -0.0077038044 0.0031005258 0.0031864196 0.00025674206 -0.003294315 -0.008941347 -0.0032313983
0.0009175715 0.0016402605 0.0019538137 0.0030239685 0.0034871404 0.0028561477 0.0038091375 0.003812568
0.0009408098 0.0009408547 0.00091145263 0.0008374212 0.00089011854 -0.00039337468 5.1155188e-05 0.0013598395
0.0006215401 -0.0020142046 -0.003837908 -0.00321833 -0.0024897722 -0.0030613255 -0.003636641 -0.003059944
-0.0005664801 -0.000885708 -0.0011228072 -0.0030043754 -0.0024031922 -0.000704379 -0.0004174381 0.0004975935
0.0014781723 0.0016594421 0.0012540538 0.0009412967 -0.00018342283 -0.00018519817 -0.00016552398 -0.00031126643
2.450518e-05 0.0028269952 0.0038437834 -7.3055315e-05 0.0029295145 0.005368424 0.0042192102 -0.004814844
-0.008937687 -0.009460314 -0.003958258 0.0019291213 0.0019264006 0.0018774532 0.004397442 0.0055842833
0.0015390391 -0.0011520035 0.0012611154 0.0020483213 0.00083652517 -8.152273e-05 -3.2384414e-05 -0.00018244932
0.0002643552 0.00026866456 0.0002488977 -0.0001410142 -1.949849e-05 0.0016200026 0.0039137006 0.0039074114
0.0068590143 0.0076823365 0.003957846 9.088622e-06 -0.0049712895 -0.003332298 0.0022295825 -0.00015587373
-0.00071515463 -0.00048741465 -0.0022516511 -0.005002142 -0.0013633015 0.001771835 0.0017245322 0.002862907
0.0035976372 0.002550183 0.0011229806 0.00027088687 -0.0027165448 -0.0027163122 -0.0027373151 -0.0026630254
-0.0018648963 -0.0010492567 -0.00037705616 0.00034050978 0.0027616317 -0.0004170016 -0.0019971866 0.0018649682
0.0050981776 0.0066386135 0.006012147 0.0064457436 0.0040116124 -0.00015322372 -0.0026324948 -0.00491233
-0.001828698 0.00013697862 -0.0011007711 -0.0009963658 -0.00012420832 0.00020286387 -0.0013417581 -0.0026969896
0.0010422291 0.0010414156 0.0010505413 0.00095569907 0.00077339076 0.003291771 0.0056752306 0.0053745923
0.003456774 0.0026417987 0.0020825763 0.0008021565 -0.0022898598 -0.0032638896 -0.0034096173 -0.0032301275
-0.00498844 -0.0032547934 0.0013946061 0.0049245507 0.0038263293 0.0019101916 0.0019704406 0.0021805696
0.0018904349 0.0011063862 0.00090769323 0.0010343698 -0.0012666201 -0.0012665747 -0.0012633058 -0.0012332154

exp_avg_sq f4 [128, 28]
00000000: 0c98 123a 5528 123a 7fa4 123a f102 133a
00000010: b915 113a b158 0c3a df7f 093a a638 0e3a
00000020: a722 223a 482f 393a 1db2 333a 58db 213a
00000030: e4a2 2e3a ed25 5f3a 6ed5 753a a2d4 543a
00000040: 115f 363a c65b 3e3a a7c8 3c3a fdb3 2d3a
00000050: 229a 263a afa2 223a 9441 1c3a eeed 133a
00000060: 17c8 113a ce34 133a e7a7 123a d599 123a
00000070: d675 313a 9b7d 313a 6fb9 313a 405f 333a
00000080: 96fc 3a3a df45 443a 9e44 4f3a bf1d 693a
00000090: 65e6 873a 0a7f 933a ec9c 8e3a 6a78 793a
000000a0: 212b 783a f338 7a3a 756c 753a a010 723a
000000b0: 7f9b 713a 1725 6c3a 71f6 6e3a 5b90 6a3a
000000c0: eefe 673a 0a20 673a 2879 583a d7e7 413a
000000d0: 8aab 373a 9bd8 323a 877c 313a 8161 313a
000000e0: 5e42 9b39 df3e 9b39 d5c6 9a39 9c91 9839
000000f0: 2978 9539 39ca 8f39 14ea 9039 26f5 9239
00000100: 2576 9439 39ca 9e39 edb1 9c39 e41d 9b39
00000110: f4e9 a139 fe94 a539 88a3 b339 2bd1 c539
00000120: 9d14 d039 598d b739 63c4 9739 c4a0 8939
00000130: 1ebf 8c39 e262 9a39 5a96 9c39 ae29 9b39
00000140: 82be 9a39 2c9a 9a39 ba64 9a39 fbf6 9a39
00000150: c8fe b73a 09fc b73a 7fc6 b73a 40ad b83a
00000160: 087e b93a 7243 b43a 329d a73a d4ad 9c3a
00000170: a45b 903a 4aec 7a3a 71f4 693a 830c 513a
00000180: 191b 413a 83e8 3d3a 7157 3f3a db50 543a
00000190: 3f53 603a 0cf7 673a 96e4 763a f493 803a
000001a0: 3491 883a 3a01 9c3a 071c af3a 592e b63a
000001b0: 1cf5 b63a 50de b73a aa23 b83a 6000 b83a
000001c0: bf22 0b3a 2235 0b3a b6f0 0a3a 0043 0a3a
000001d0: f1e9 063a add7 023a e8e0 003a 26c6 f639
000001e0: e749 fa39 64ad fe39 bb1f 003a cfb4 113a
000001f0: b4ee 203a c25d 2e3a 42e1 3b3a 4c58 3e3a
00000200: 61f4 323a 8f2e 203a d65c 1b3a 6fbc 173a
00000210: 537d 163a 1962 133a 26fe 0e3a 12f1 0e3a
00000220: bf1e 0f3a 504d 0d3a 6999 0b3a de18 0b3a
00000230: 54aa 883a bfb2 883a 1893 883a a550 883a
00000240: 89a7 853a 819c 803a 6552 7c3a ef66 763a
00000250: 67cd 663a 4473 573a b4f1 413a 2a00 253a
00000260: ac03 193a 0a5f 333a a0b0 583a da57 643a
00000270: bf07 4f3a 880b 513a bfe3 5b3a baa2 6a3a
00000280: 5bf0 6f3a b253 793a 0b08 833a 7119 863a
00000290: b05e 853a 1bc2 863a 9c6e 883a 299a 883a
000002a0: 62a5 033a 3698 033a 4d46 033a cd09 043a
000002b0: 2776 093a 4b11 103a 1880 193a 8dc2 1f3a
000002c0: ae76 273a d11b 2a3a b68c 223a 2c8b 173a
000002d0: 3b51 183a 69d5 1c3a 0292 2a3a 3396 223a
000002e0: b9ee 143a 8223 133a e386 133a f81d 093a
000002f0: 89eb 043a 5964 043a 16b7 043a adf5 003a
00000300: b6bd 023a 7aee 013a 3ee1 023a 658c 033a
00000310: 37ed dd39 2c2a de39 46b3 dd39 1c34 dd39
00000320: 7dd8 e039 b71d e939 922b f639 a385 013a
00000330: 2941 083a d5ea 093a f97c 033a 1eb5 ff39
00000340: 1581 f339 26b8 df39 af70 f039 480b 073a
00000350: 0eb0 033a 415e 073a 45a2 083a 7a4d fb39
00000360: d858 ed39 60b9 e539 0f20 e339 dc43 df39
00000370: fcfa d939 4d1b dc39 02ae dc39 26d3 dd39
00000380: d36d 8a39 9097 8a39 dda7 8a39 1cd7 8939
00000390: 5818 8939 4219 8939 2543 8239 3495 7f39
000003a0: d8d4 8639 f97b 9039 d575 9039 93d2 8539
000003b0: c475 8639 1b23 8e39 d264 9039 0776 9039
000003c0: b85e 9239 9ca2 9239 ade5 8539 d34e 7f39
000003d0: c833 8339 ff8a 8739 9aa2 8839 8c22 8639
000003e0: 6b43 8639 4e99 8839 aa0d 8a39 2556 8a39
000003f0: f988 cd39 7787 cd39 8738 cd39 c6d9 cc39
0.0005592115 0.0005575468 0.000559397 0.0005608043 0.0005534548 0.0005353792 0.00052451895 0.00054253114
0.0006184973 0.00070642354 0.0006854849 0.00061743474 0.0006661846 0.0008512426 0.0009377812 0.0008118843
0.0006956915 0.00072616 0.00072015304 0.00066262466 0.0006355365 0.00062040513 0.00059606996 0.0005643059
0.0005561127 0.00056154735 0.00055944774 0.0005592381 0.0006769573 0.0006770731 0.0006779646 0.00068425015
0.0007132975 0.0007487218 0.0007906648 0.0008892677 0.0010368346 0.001125307 0.0010880507 0.0009516539
0.0009466876 0.0009545229 0.00093621697 0.00092340447 0.0009216591 0.00090082124 0.0009115702 0.0008947902
0.0008849938 0.0008816725 0.00082578 0.00073969126 0.00070064573 0.0006822438 0.000677057 0.00067665434
0.0002961335 0.00029610746 0.0002952131 0.00029100187 0.0002850902 0.00027425753 0.00027640222 0.0002802994
0.00028316784 0.00030286776 0.00029887204 0.00029586174 0.00030882622 0.0003158226 0.0003426338 0.0003773061
0.0003968821 0.00035009792 0.00028947284 0.00026250456 0.00026845274 0.00029446842 0.0002986666 0.00029594958
0.00029515108 0.00029488036 0.00029448216 0.00029557184 0.0014037723 0.0014036904 0.0014020948 0.0014089718
0.001415194 0.001375301 0.0012787937 0.001195366 0.0011013639 0.0009571953 0.0008924669 0.00079745817
0.00073664036 0.0007244425 0.00072991016 0.00080992066 0.00085573265 0.00088487635 0.0009418217 0.0009809718
0.001041925 0.0011902221 0.0013359793 0.0013899311 0.0013958546 0.0014028046 0.0014048715 0.0014038198
0.0005307607 0.00053103466 0.0005300151 0.0005274266 0.00051465543 0.00049912446 0.0004916326 0.00047068408
0.00047738777 0.0004857584 0.00048875407 0.00055582536 0.0006139085 0.0006651544 0.000716705 0.0007261082
0.00068265764 0.00061104534 0.00059266144 0.00057882717 0.00057407207 0.00056222227 0.0005454741 0.00054527924
0.00054595986 0.00053902436 0.0005325289 0.00053061347 0.0010426738 0.0010429247 0.0010419814 0.001040001
0.0010197024 0.0009812267 0.0009625315 0.00093994936 0.0008804411 0.0008218775 0.00073983823 0.0006294275
0.0005837034 0.000684247 0.0008266065 0.00087106007 0.00078975776 0.00079744356 0.0008388124 0.000895064
0.0009152942 0.0009511068 0.0009996904 0.0010230971 0.0010175314 0.0010281237 0.0010408941 0.001042192
0.00050218974 0.00050199346 0.0005007729 0.0005036861 0.00052437413 0.0005495741 0.0005855574 0.0006094359
0.0006388229 0.00064891303 0.0006200777 0.0005780931 0.0005810444 0.00059827283 0.0006506742 0.0006202191
0.00056813244 0.0005612896 0.00056277047 0.0005230601 0.0005070498 0.00050503534 0.00050626823 0.0004919421
0.00049873756 0.0004956495 0.000499267 0.0005018174 0.00042329144 0.0004237456 0.00042285974 0.0004219123
0.00042885906 0.00044463362 0.0004695324 0.0004940873 0.0005197698 0.0005261128 0.0005015876 0.00048772333
0.00046444745 0.00042671076 0.00045860323 0.00051515223 0.00050234876 0.0005163886 0.00052121683 0.00047932175
0.00045270356 0.000438164 0.000433207 0.00042584434 0.00041576463 0.0004198201 0.00042091316 0.00042309723
0.00026403237 0.00026434334 0.0002644648 0.00026290945 0.00026148814 0.00026149495 0.0002484556 0.00024374278
0.00025717053 0.00027558187 0.00027553612 0.00025524627 0.00025646214 0.00027110506 0.00027540937 0.00027553758
0.0002791786 0.00027968443 0.0002553886 0.0002434806 0.00025024847 0.00025852767 0.0002606109 0.0002558421
0.00025608702 0.00026054162 0.00026331592 0.00026385594 0.000392027 0.00039201576 0.00039142763 0.00039072166

exp_avg f4 [128, 128]
00000000: 04ba 24bb 77cf 8d3b 4022 8a3b ee32 a63b
00000010: 81bb 3c3b 4e24 89bb 738f 6a3b 9c92 893a
00000020: 881e 29bc 9a99 8c3b 464c a5bb 58e1 07bc
00000030: 7736 94bb 8b75 b7bb e5ef 5fb8 2908 3c3b
00000040: 155c 6a3b 0e6c 84bb 4325 663b 507d 1dbc
00000050: 79fb a93a 6a71 81b9 c4b2 aebb 8543 debb
00000060: 10a5 143b 07c0 ca3b bc17 80ba aab3 153c
00000070: d689 81bb 809a 37ba e182 deba 14a0 c7bb
00000080: 6cb5 1ebc cc0e 72bb bf25 423a 527b bb3b
00000090: b749 bcba 1ba7 3abb 015d deb9 0041 9fba
000000a0: 25fe 933b a0fd e23b 7be8 92b9 eee1 fabb
000000b0: 7fff d3b9 1b12 b63a 3b88 a5bb 7551 3fbb
000000c0: e27b b2ba d154 20bb e743 f33b 9d2f f03a
000000d0: d1ff bebb 8383 b23a 9abe f5bb 2e40 273c
000000e0: 4adf 393b 5780 3ebc 832f 743b 3c81 be3a
000000f0: 14a1 acbb 29ec b2bb 6384 e3bb 1e14 953b
00000100: 8e42 263a b194 79ba f01d 3fbb e18e f73a
00000110: 79db 903a 0616 93bb 9506 683a 56e2 e0bb
00000120: 5155 d33a 058e d63a 3ec1 89ba 8201 2239
00000130: f6ad 81bb 07e0 253b 3cf4 9539 9bab 7cbb
00000140: e074 e9bb b986 89bb 55b1 4bbb 9bf4 113b
00000150: 11f5 22bb 0ac1 fe3b b363 7f3b 7fcd debb
00000160: 5fc7 563b 0173 9c3b baa2 98ba 86c9 28bb
00000170: 458e 663b e786 123c a77f cc36 4327 92bb
00000180: c2f7 b4ba 7597 4f3b adaf 993b fca3 b13b
00000190: 0d41 70bb 1f6e c9ba c7b5 38bb 3567 28bb
000001a0: 0bab dcb9 c16a 05ba 8813 8f3b 6835 d7b8
000001b0: 156b 763b 7e0b 08bc 602e 36ba 1657 38bb
000001c0: 6713 a3bb abfb 2b3b e876 f5ba 1d15 47bb
000001d0: 0307 b3ba 7bb7 853a 9e18 043c bf18 a0bb
000001e0: 7eaa 17bc 41b3 a1bb 2dc8 26bc 4a39 a1bb
000001f0: 5751 8dbb 8b80 debb b026 2ebb 3adb b33b
00000200: 32bd f13a 21fe 703a 5a0a afbb ce66 513b
00000210: ca54 fe3b 6aaa 513b 4bdc e4ba b5a1 5abb
00000220: c29e 14bb 9924 bd3a f6e2 52bb d1dc 53bb
00000230: 8d26 2c3b 91dd b6bb 9e91 4139 077b c83b
00000240: 4560 0038 2141 99bb 8c86 93bb 1108 933b
00000250: 7d9e 19bc d0a7 753a af1a ddbb 552a cabb
00000260: f94b c0b9 b319 c1ba e709 8d3a 2325 643b
00000270: 1c96 bf3a 8d7e 323b c6f9 bc3a c467 033b
00000280: 57a2 46bb 83ee ba39 47dc 96ba ab2e 22bb
00000290: ade8 b9ba f2f1 a3bb bfd1 913b 9e48 cdba
000002a0: b358 abbb fa24 e1bb 1558 8b3b 122a eaba
000002b0: f030 77ba 34f7 84bb 45ae aa39 6bc7 23bb
000002c0: babe 0abc 2d50 803b 7491 14b9 6220 cd3a
000002d0: 734c 5d3b 8d1d 87b9 5c26 8bbb caed 963b
000002e0: f15f 53bb 4b3c 59bb 2e90 07b9 2c06 ad3b
000002f0: ad36 b3bb f0d5 8bbb 8eae 943a a531 f33a
00000300: eb53 04b9 ddde fb3b 8b0d 0bbc ee6c 66bb
00000310: ecd8 2cb9 847c 473b 6dbe 233a 4b2a bfba
00000320: 550c deb9 c130 0b3a be02 bcbb d51a 89ba
00000330: 94be aabb cd47 baba 1d69 d43a cbf1 c2bb
00000340: 7ffd 8f3b dfa7 c9bb f4cd 3ebb e14d 403b
00000350: d5e7 983b b3c3 553b 1426 afbb 344f 15bb
00000360: 0dff 5ebb 086f 203a d783 373b a1ff 673b
00000370: aed6 083b 03c9 a03b a5d6 2fbb ba11 69bb
00000380: 4362 fb39 fe6a afbb 5ca3 89bb b1e4 673b
00000390: 5402 b53b c58b a8ba f8cd 04bc 50f0 7bbb
000003a0: 7c02 55b9 a121 0f3c ce6c 92ba bcf0 9dbb
000003b0: 007d 0a39 0065 35bb 8513 03bc a87d 403b
000003c0: 9896 7ebb ee5e 8dba d02b 033b ead7 453b
000003d0: da9d 10ba eb76 d03a 8f35 783b b04a 3bbb
000003e0: 465e 9f39 9088 23bb 2451 24bb a505 bc3b
000003f0: 620c 4d3a 43e1 3cb9 57a7 92bb aacc bcbb
-0.0025135288 0.0043277103 0.0042155087 0.0050719893 0.0028798284 -0.004185236 0.0035791069 0.0010495964
-0.010322221 0.0042907717 -0.005044493 -0.008293472 -0.0045230943 -0.005598729 -5.3390762e-05 0.0028691387
0.0035760452 -0.0040412014 0.0035117425 -0.009612396 0.0012968621 -0.00024689297 -0.005331369 -0.0067829513
0.0022681393 0.006187442 -0.0009772698 0.0091370735 -0.003953199 -0.0007003918 -0.0016976261 -0.006092081
-0.009686809 -0.003693509 0.00074061373 0.005721488 -0.001436523 -0.002848095 -0.00042412433 -0.0012150109
0.0045163804 0.006927207 -0.00028020501 -0.0076563274 -0.00040435416 0.0013890894 -0.0050516403 -0.002919284
-0.0013617242 -0.0024464617 0.007423866 0.0018324737 -0.0058288355 0.0013619516 -0.007499528 0.010208173
0.002836185 -0.011627278 0.0037259765 0.0014534364 -0.0052682254 -0.0054602814 -0.006943272 0.0045495173
0.0006342315 -0.0009520753 -0.0029162131 0.0018887186 0.0011051736 -0.0044887094 0.00088510785 -0.006862919
0.0016123449 0.0016369229 -0.0010509861 0.00015450086 -0.0039575053 0.0025310533 0.00028601463 -0.0038554433
-0.0071245283 -0.0041969684 -0.003108104 0.002227104 -0.002486531 0.007774477 0.0038969337 -0.0067993994
0.0032772643 0.0047744517 -0.0011645176 -0.0025754883 0.0035180014 0.008943296 6.0945345e-06 -0.004460247
-0.0013806748 0.0031675969 0.0046901316 0.00542116 -0.0036659867 -0.0015367902 -0.002818452 -0.0025696282
-0.00042089107 -0.0005089455 0.004366342 -0.000102619466 0.0037600447 -0.008303521 -0.00069496594 -0.002812808
-0.004976678 0.0026242535 -0.0018727453 -0.0030377575 -0.0013658706 0.0010201776 0.00806251 -0.0048857625
-0.009256957 -0.004934699 -0.010179562 -0.0049201595 -0.004312675 -0.006790226 -0.0026573353 0.0054887803
0.0018443225 0.00091931416 -0.00534181 0.0031952146 0.0077615725 0.0031992444 -0.0017460672 -0.0033360545
-0.0022677635 0.0014430463 -0.0032178736 -0.0032327662 0.0026268095 -0.005580612 0.00018460161 0.0061181816
3.0607236e-05 -0.0046769534 -0.004502123 0.0044870456 -0.009376165 0.00093710143 -0.0067475657 -0.006169597
-0.00036677698 -0.001473239 0.0010760397 0.0034812174 0.001461688 0.0027236075 0.00144177 0.0020050863
-0.0030309164 0.0003565439 -0.001150974 -0.0024747055 -0.0014183723 -0.0050032074 0.0044500525 -0.00156619
-0.0052290796 -0.006870863 0.0042524436 -0.0017865321 -0.00094295945 -0.004057789 0.00032554768 -0.0024990689
-0.008468324 0.0039158077 -0.00014168565 0.001564991 0.003376749 -0.00025771224 -0.004246516 0.0046059834
-0.003225323 -0.003314751 -0.00012928314 0.0052802768 -0.0054691643 -0.0042674467 0.0011343525 0.0018554224
-0.00012619763 0.0076864795 -0.008487116 -0.0035160142 -0.00016484008 0.0030439207 0.0006246332 -0.0014584748
-0.00042352328 0.0005309694 -0.0057376316 -0.0010460267 -0.005210707 -0.0014212072 0.0016205643 -0.005949234
0.0043942328 -0.006154045 -0.0029114457 0.0029343294 0.0046663084 0.0032617867 -0.0053451154 -0.0022782804
-0.0034026534 0.00061200606 0.0028002167 0.003540017 0.0020879912 0.004906775 -0.002683082 -0.0035563544
0.0004794766 -0.0053533306 -0.004200382 0.0035384113 0.005523959 -0.0012859037 -0.008105747 -0.0038442798
-0.00020314188 0.008736045 -0.0011171342 -0.0048199575 0.00013207272 -0.002767861 -0.008000259 0.0029371772
-0.0038847085 -0.0010785738 0.0020015128 0.003018851 -0.0005516686 0.0015904581 0.003787372 -0.0028578453
0.00030397082 -0.0024953224 -0.0025072778 0.0057379776 0.00078219746 -0.00018012994 -0.004475515 -0.0057617025

exp_avg_sq f4 [128, 128]
00000000: 362c 9d39 9b3d 293a e216 733a 96a0 263a
00000010: 883c 533a ba0a db39 10e1 713a b562 1d3a
00000020: 4aad e739 8c5e 163b c7ea 0f3a 7810 563a
00000030: db48 453a a149 2e3a 5ad5 2f3a 690b 1d3a
00000040: 03e3 7f3a b744 123a a9db 393a 56e6 293a
00000050: 7331 f439 91e8 1b3a 8842 263a 760d a539
00000060: 8111 763a 241f 953a ecc9 8f3a e921 a43a
00000070: 8f57 863a 72e1 823a c56f 753a 37f4 ff39
00000080: dad1 7a3a 7dc8 903a b801 073a 71e3 443a
00000090: ed85 c93a 157a 833a c83e df39 4f4d 713a
000000a0: b95a 493a 0c5c 323a 9cc8 dd39 46dc 113a
000000b0: 1cae 353a a273 4f3a 197b 353a 283c 703a
000000c0: 6d6f c339 acb5 fd39 91d9 e339 61d5 a339
000000d0: 2159 503a c289 5a3a d198 b739 9171 5e3a
000000e0: d78f d439 96b8 bf3a 778d 003a eccd 2c3a
000000f0: ad05 fb39 4fba 003a 2816 0b3a 0333 943a
00000100: 83d7 753a 564d b739 9f4c 3a3a ef7a 6b3a
00000110: 90c7 be3a 462b 453a e56d 7c39 8bdc 0d3a
00000120: 5fd5 9239 7b70 d73a 0456 b039 249b 743a
00000130: 379d 393a f093 803a 23ba 653a 40b6 e239
00000140: 195e 393a b75f d339 c404 d83a 9b56 623a
00000150: d133 c439 c45e 5c3a 18c2 bf39 9802 853a
00000160: aaaf 9f39 9e60 0e3a 8254 f439 501f 5b3a
00000170: 2f9a be39 53a7 3b3a f6e6 c83a 0a94 003a
00000180: 79d9 7b3a 0436 d839 9e77 f639 3134 e039
00000190: 29f8 693a 0930 b53a f706 3e3a df16 473a
000001a0: fb35 c939 e510 c139 5928 b339 230b c239
000001b0: 1581 853a 3b83 053a d583 2c3a 7186 213a
000001c0: cb8a 563a 91a5 9f39 2706 a83a f983 f939
000001d0: 564f e83a d97d c339 5b78 573a cdf6 9f39
000001e0: 90b3 1e3a 2642 723a 5af2 ae3a 8242 2c3a
000001f0: cc06 1c3a 717e b339 0a00 123a d4d8 183a
00000200: bf59 953a 59c6 d139 3ab6 123b d1ab 3f3a
00000210: a675 143b 2dbb 433a 12ec fb39 a9ca e83a
00000220: 883e 7d3a c71d 7a3b b802 5b3a 3201 3b3a
00000230: f133 cb3a 45a9 b23a b83c f439 8d2d 3e3a
00000240: 7a4c 3a3b 70ab 9b3a 9076 be3a d114 5d3a
00000250: c210 c53a fd30 283a de4b 9b3a 1269 543a
00000260: f9c4 1d3a 3c58 4a3a f1ae 483b dd46 783a
00000270: efee 853a 7a6c 033b 8b71 8b3a 3ab2 053a
00000280: 00f5 683a e949 3d3a be09 d53a b96e 9d3a
00000290: 798b 1e3b 2d9b ee3a da39 5b3a 0d6c 133a
000002a0: 6e34 933a 5aa7 a33a f7a9 4e3a 459d 243a
000002b0: a8c7 1c3b 1a12 8b3a c079 8b3a f8a9 853a
000002c0: 080d 8c3a e5f9 343a 9af6 863a df43 103a
000002d0: ee26 3d3a 6d19 fe3a 70a6 ad3a c6e1 813a
000002e0: 339a 0e3a ebf1 a03a be20 be3a 439c 223b
000002f0: ef3f 453a 8d7e 003b 4e75 bb3a d7a0 163b
00000300: 83c5 173a c876 e339 a8e5 7b3a 9946 c63a
00000310: d947 423b e189 163a 82e0 9b3a 2595 1d3a
00000320: 9664 463a e32a 213b bc0d b93a 6472 2e3b
00000330: 86e5 cf3a d995 0f3b 977a 623a cac1 d13a
00000340: 5fb7 cf3a 1168 363a f9ff 973a 4806 8b3a
00000350: acab e73a 5fe7 093a b5ea 173a 121a 953a
00000360: d4b3 2a3a 832b e33a a05e c13a 68f7 b33a
00000370: e2ea 923a ddee 903a f668 1b3b b829 d039
00000380: 8c1c ea3a 89ae 303a a07b 0e3a 3a3d 703a
00000390: 6956 af3a fba1 1a3b 1b8e 5f3a 059f 843a
000003a0: 7e56 643a dd07 183a b391 f139 c699 d43a
000003b0: f625 e43a eabe e93a dc25 5e3a 0852 f439
000003c0: a3ba 703a 2045 a33a cd1e 0d3b 91a4 5d3a
000003d0: e25f 613b da96 e23a 25de 0b3a 96c0 793a
000003e0: ae37 8f3a 882d 2d3b 774e db3a 49b4 1c3a
000003f0: 47c6 083b e96d 523a 809f 493a dd7a 533a
0.00029978313 0.00064560183 0.0009273124 0.00063563266 0.0008058031 0.00041778927 0.00092269573 0.0006003783
0.00044188864 0.0022944538 0.00054900016 0.0008165906 0.000752581 0.0006648545 0.0006707512 0.0005990775
0.00097613054 0.00055796973 0.0007089922 0.0006481161 0.0004657615 0.0005947436 0.00063423114 0.00031481282
0.00093867636 0.0011377078 0.0010970212 0.0012522313 0.0010249483 0.0009985401 0.0009362663 0.00048819344
0.00095680135 0.0011046078 0.00051500974 0.0007510698 0.0015374996 0.001003089 0.0004258065 0.000920494
0.000768106 0.0006803877 0.0004230187 0.00055641343 0.00069305464 0.0007913654 0.0006922945 0.00091642374
0.00037276317 0.00048391277 0.00043458914 0.00031248762 0.00079478516 0.00083365676 0.00035018337 0.00084855506
0.0004054296 0.0014627154 0.00049038924 0.0006591964 0.0004787868 0.00049105746 0.0005305731 0.0011306707
0.0009378122 0.000349621 0.00071067543 0.0008982857 0.0014555324 0.0007521402 0.00024073532 0.00054115866
0.00028006264 0.001643672 0.00033633423 0.0009330979 0.0007080617 0.0009809714 0.0008763393 0.00043241866
0.00070712116 0.0004031637 0.0016480912 0.0008634121 0.0003742264 0.0008406455 0.0003657497 0.0010147868
0.00030457723 0.0005431267 0.0004660227 0.0008358853 0.000363545 0.0007158417 0.0015327621 0.0004904872
0.0009607296 0.00041238975 0.00047009898 0.00042763495 0.00089252234 0.001382352 0.00072489626 0.00075946556
0.00038377926 0.00036824416 0.00034171602 0.0003701086 0.0010185564 0.0005093102 0.0006580924 0.0006161696
0.0008184134 0.000304502 0.0012819216 0.00047591308 0.0017723839 0.00037287062 0.00082195335 0.00030510724
0.00060539786 0.0009241424 0.0013347373 0.000657119 0.00059519405 0.00034235747 0.0005569464 0.000583065
0.0011394544 0.00040011367 0.0022386448 0.00073116744 0.0022653132 0.0007466551 0.00048050337 0.0017760593
0.0009660502 0.0038164721 0.0008354592 0.0007133662 0.0015503151 0.0013630769 0.00046584546 0.00072547124
0.0028426931 0.0011876654 0.0014531184 0.0008433583 0.0015034901 0.0006415991 0.0011848172 0.0008102815
0.0006018426 0.00077188364 0.0030621851 0.00094710087 0.0010218302 0.002005367 0.0010638697 0.0005100105
0.00088866055 0.00072207913 0.0016253514 0.0012011147 0.002419202 0.0018204205 0.00083628076 0.0005623706
0.0011230835 0.0012485788 0.0007883603 0.00062795385 0.0023922715 0.0010610253 0.0010641143 0.0010197749
0.0010685036 0.0006903692 0.0010296882 0.00055032776 0.0007215579 0.001938624 0.0013248455 0.0009909205
0.00054398476 0.0012279128 0.0014505608 0.0024812378 0.00075244805 0.001960668 0.0014301927 0.0022984052
0.00057896244 0.00043385313 0.00096091116 0.0015127241 0.0029644875 0.00057425915 0.001189247 0.0006011299
0.0007568089 0.0024592213 0.0014118473 0.0026618475 0.001586125 0.0021909385 0.0008639483 0.0016003188
0.0015847496 0.0006958256 0.0011596672 0.001060673 0.0017675064 0.0005260612 0.0005795167 0.0011375567
0.0006511782 0.0017331693 0.0014752932 0.0013730349 0.0011208917 0.0011057515 0.0023713685 0.00039703934
0.0017861291 0.0006739875 0.00054352917 0.0009164397 0.0013377193 0.0023595083 0.000852795 0.0010118192
0.0008710398 0.00057995116 0.00046075656 0.0016220144 0.0017406333 0.0017833386 0.00084742694 0.00046600425
0.00091830845 0.0012456514 0.0021533251 0.0008455003 0.0034389426 0.0017287389 0.00053355313 0.0009527294
0.0010926628 0.0026424844 0.0016731758 0.00059777923 0.0020870136 0.0008027242 0.0007691309 0.0008067319

exp_avg f4 [128]
00000000: 302b 453b b7df a0bb ecec cc3a 2362 79bb
00000010: 13a1 76ba cc56 4039 5799 8ab9 2308 323b
00000020: 8f9b 88ba bd04 a63a 0ef3 6a38 f3f4 a73b
00000030: 24dd c7bb 179e 1839 df9f 09bc f65b 353a
00000040: 039b 8a3a af26 743c c169 f83b de3b 4bbb
00000050: 0d36 943a 1c1e 893b 95ff 3bbb 206e 6d3b
00000060: 0877 af3b c631 5c3b ddd5 09b9 3d31 dd3a
00000070: f2da e7ba 95e0 e73a 72b0 353c 6a64 e1bb
00000080: 5c3d 12bb 4120 89bc 8074 8d3b d63a 61bb
00000090: be15 a6ba f7c6 353b ca22 72bb 15b1 8cba
000000a0: 7b5d 823b a889 e83b c9d8 e63b f552 a6ba
000000b0: e365 273a b365 b3bb 1aa4 e9bb 1664 9b3b
000000c0: 70ae d43a f7d9 313a 00ab 653b 5f14 c23b
000000d0: 57a6 65bb 49c6 a9ba 00d5 0738 22ad 02bb
000000e0: 159f debb 42a7 1339 acec d83b e73a 01bb
000000f0: 68ed bebb e339 983b 3344 7eb9 d471 103b
00000100: 4af9 2239 73ed a23a c79b 053b 4f3e 2bbb
00000110: 8697 c3ba 4d1c a6ba a5c0 1dbc a3b3 843b
00000120: 395d 443b 854a db3a 1427 bb3b 1651 533b
00000130: 3d7f d8b9 7595 843b e69d b0ba 76ad 513b
00000140: 68c6 8839 5227 11bc 752d f83a fe17 5f3b
00000150: bfbb 60bb b2ed 9d3a 461d c73a b0ac cabb
00000160: 60e8 333b 7c24 17b8 06d1 8b3b 1bb5 133b
00000170: 537e 50ba 0867 35bb 5b70 473b b88b 5bbb
00000180: 0e37 103b c415 14bb fc0d 05bc 0c4b bab9
00000190: 0439 743b 44d4 98bb 874f c03a 1851 9d3a
000001a0: c2ea 5e3b 9306 82bb bfc7 bc3b 2347 1abb
000001b0: c0a6 ed3b b8a4 813b 3801 38ba 6177 bcbb
000001c0: ecc1 03bb e7e6 82ba aee1 afba a4e5 19bc
000001d0: 1343 1638 960f 16bb 9439 66ba b394 093b
000001e0: bbf0 cb39 7aea b93a 8ac2 55bb 57f7 30bb
000001f0: 74a0 143b e7c2 bcbb c642 7dba 8ecc b53b
0.0030085556 -0.0049094814 0.0015634573 -0.0038052879 -0.0009408157 0.00018342881 -0.00026435658 0.0027165494
-0.0010422337 0.0012666207 5.601631e-05 0.005125636 -0.00609936 0.00014554743 -0.008399933 0.00069183053
0.0010574762 0.014901801 0.007580966 -0.0031011025 0.0011307612 0.0041844975 -0.0028686274 0.003622897
0.005354766 0.0033599003 -0.00013145008 0.0016875636 -0.0017689152 0.0017690832 0.011089431 -0.0068784254
-0.0022314405 -0.016739013 0.0043168664 -0.0034367344 -0.0012671275 0.0027737 -0.0036947005 -0.0010733927
0.003978429 0.007096488 0.007044886 -0.0012689518 0.0006385727 -0.00547477 -0.007130158 0.004742156
0.0016226303 0.00067844935 0.003504455 0.0059228386 -0.0035041773 -0.001295277 3.238488e-05 -0.001993962
-0.0067938664 0.00014081321 0.0066200104 -0.0019718946 -0.005826641 0.0046455725 -0.00024248734 0.0022040503
0.00015542391 0.0012430385 0.002038704 -0.0026129668 -0.0014922477 -0.0012673229 -0.00962845 0.0040497347
0.0029962792 0.0016730583 0.0057114456 0.0032244376 -0.0004129353 0.004046137 -0.0013474792 0.003199426
0.00026087766 -0.008859472 0.0018934446 0.00340414 -0.0034291593 0.0012048988 0.0015191219 -0.0061851367
0.0027451739 -3.6035184e-05 0.004266861 0.0022538367 -0.0007953394 -0.002767982 0.003043196 -0.0033500027
0.0022005471 -0.002259598 -0.00812101 -0.000355326 0.003726543 -0.004663976 0.0014672138 0.0012002317
0.0034014438 -0.003968069 0.0057611163 -0.0023540936 0.007252544 0.0039564036 -0.00070192246 -0.0057515358
-0.00201046 -0.0009987027 -0.0013418698 -0.0093931295 3.5825255e-05 -0.0022897474 -0.00087823835 0.0020993173
0.00038898535 0.0014184259 -0.0032617175 -0.0027002895 0.0022678645 -0.005760539 -0.0009661134 0.0055480665

exp_avg_sq f4 [128]
00000000: 0d98 123a f475 313a 5e42 9b39 d6fe b73a
00000010: a122 0b3a 31aa 883a 54a5 033a 3bed dd39
00000020: d86d 8a39 4189 cd39 becf ff39 cbee 203b
00000030: c811 3b3a 678d e139 fddb 063b a774 113a
00000040: e535 d739 b42f 2c3a e065 193b 1970 b239
00000050: de9f cd39 c4f8 cc3a 0a1c e239 1f1a 223a
00000060: e490 723a e56d 1b3a 7bfa 9d39 a653 d739
00000070: d1ca 213a d66d b939 3c23 913a f7ce 243a
00000080: 7750 833a c377 a83a b60b 0f3b 2bcf 9839
00000090: f852 7c3a d8f0 c039 6cb0 fc39 b5fb 633a
000000a0: 6b18 b839 de7c 013a a25d a339 0acf ed39
000000b0: dbe0 643a 080c 843a fd70 653a 8f9a ec39
000000c0: 205e e439 972e e539 2f1d 2a3a 7be4 163a
000000d0: aabe f339 3af0 643a 45af 573a 28de 3c39
000000e0: 73f3 5e3a d78a 4b39 8330 be39 7dc2 a739
000000f0: 37f2 433a 4e58 4c3a cf92 2b3a 33c8 8d39
00000100: 6066 133a de4d 5d39 b5ad 8439 de37 1b3a
00000110: 5cfb b239 5b9a 003a 8bdc 953a 26e2 0e3a
00000120: 612b 323a ca34 8a3a 0ec7 183a e727 bf39
00000130: 795b ad39 3c33 d13a c8c8 c039 4cb8 283a
00000140: ef4e 333a 44ad 303a 02da 5c3a de18 3e3a
00000150: 88eb 083a 8e30 173a 313c 8739 763b 013a
00000160: 9bbf 233a 3986 193a ace9 453a 5691 6739
00000170: a4b3 d63a 619b 9139 0c03 403a 8105 0a3a
00000180: 6c87 a939 f133 fd39 c82a 323a fdf8 dd39
00000190: 3260 603a 5522 9639 bf69 9f39 9afb 053a
000001a0: 0323 a239 eb17 ed39 c985 2d3a 19a1 873a
000001b0: 8bb5 853a 9729 623a cb48 473a b331 a33a
000001c0: fb86 e739 897d 0a3b 86fe d439 0728 9c3a
000001d0: 618c f739 90c9 083a 5500 9539 3032 a639
000001e0: 93d8 093a 4a5d d439 7307 363a 6447 c139
000001f0: b72d 703a e115 6d3a ff1b d539 3608 423a
0.00055921153 0.00067695905 0.0002961335 0.0014037739 0.00053075893 0.0010426698 0.0005021889 0.00042329155
0.0002640325 0.0003920291 0.0004879217 0.0024556394 0.00071361335 0.00043020697 0.00205779 0.00055486936
0.0004104815 0.00065683876 0.002340667 0.00034034325 0.00039219757 0.0015638103 0.0004312697 0.0006183702
0.0009253158 0.00059291563 0.00030131996 0.0004107032 0.00061718846 0.00035367784 0.0011073123 0.00062869437
0.0010018487 0.0012853075 0.0021827049 0.0002914605 0.00096254004 0.00036800536 0.0004819663 0.000869687
0.00035113408 0.0004939566 0.00031159545 0.0004535842 0.0008731016 0.0010074386 0.00087524933 0.00045128583
0.00043557677 0.00043712996 0.0006489334 0.0005756092 0.00046490628 0.00087333063 0.00082277163 0.00018011837
0.00085049047 0.0001941131 0.00036275768 0.00031997627 0.00074747525 0.0007795141 0.00065450085 0.00027042776
0.000562286 0.0002110521 0.00025306424 0.00059211056 0.00034138083 0.0004905813 0.0011433525 0.0005450569
0.0006796625 0.0010544297 0.00058280013 0.00036460088 0.00033065284 0.0015960704 0.00036770687 0.0006436154
0.000684007 0.0006739686 0.00084248197 0.00072516303 0.0005223085 0.0005767428 0.00025794053 0.000492982
0.0006246508 0.00058564876 0.00075497734 0.00022084019 0.0016380441 0.00027772321 0.0007324673 0.00052651024
0.0003233509 0.0004829462 0.0006796536 0.00042337916 0.0008559256 0.0002863581 0.0003040563 0.0005111039
0.00030925134 0.00045221983 0.0006619362 0.0010347693 0.0010201199 0.0008627413 0.00076020946 0.0012450725
0.00044160322 0.0021131954 0.00040625426 0.0011913785 0.00047216102 0.00052180234 0.00028419742 0.0003169938
0.00052584073 0.00040505297 0.0006943859 0.0003686502 0.00091620855 0.0009044093 0.00040647385 0.0007401736

exp_avg f4 [128]
00000000: 602b 453b b4df a0bb f2ec cc3a 2862 79bb
00000010: eba0 76ba 6756 4039 1299 8ab9 0d08 323b
00000020: 709b 88ba aa04 a63a 6aeb 6a38 d9f4 a73b
00000030: 12dd c7bb f19c 1839 e79f 09bc 455c 353a
00000040: d29a 8a3a a726 743c bf69 f83b d93b 4bbb
00000050: 0e36 943a 3d1e 893b 83ff 3bbb 3f6e 6d3b
00000060: f676 af3b d831 5c3b 2dd6 09b9 4c31 dd3a
00000070: 99da e7ba d4e0 e73a 69b0 353c 6a64 e1bb
00000080: 4f3d 12bb 3620 89bc 6b74 8d3b bc3a 61bb
00000090: d915 a6ba 05c7 353b c422 72bb 22b1 8cba
000000a0: 755d 823b ab89 e83b c0d8 e63b cc52 a6ba
000000b0: 8d65 273a ba65 b3bb 0fa4 e9bb 2264 9b3b
000000c0: 40ae d43a dad9 313a 01ab 653b 5414 c23b
000000d0: 54a6 65bb 86c6 a9ba 80d4 0738 29ad 02bb
000000e0: 1b9f debb 9da5 1339 a4ec d83b e03a 01bb
000000f0: 49ed bebb c039 983b 1d44 7eb9 ec71 103b
00000100: c4f8 2239 aded a23a 9e9b 053b 5c3e 2bbb
00000110: 7a97 c3ba 0d1c a6ba 9ac0 1dbc 98b3 843b
00000120: 3a5d 443b 6e4a db3a fc26 bb3b 1151 533b
00000130: 227f d8b9 7895 843b 769e b0ba 62ad 513b
00000140: 63c7 8839 5f27 11bc 4a2d f83a fc17 5f3b
00000150: b0bb 60bb d5ed 9d3a 331d c73a a9ac cabb
00000160: 44e8 333b 621d 17b8 26d1 8b3b 24b5 133b
00000170: 147e 50ba e766 35bb 7770 473b b48b 5bbb
00000180: 1637 103b 0016 14bb 030e 05bc 1d4c bab9
00000190: ed38 743b 4ad4 98bb 6d4f c03a 0551 9d3a
000001a0: 9dea 5e3b 8a06 82bb d8c7 bc3b 3e47 1abb
000001b0: c2a6 ed3b c6a4 813b 8501 38ba 5677 bcbb
000001c0: f8c1 03bb 1ce7 82ba ece1 afba 9de5 19bc
000001d0: 534b 1638 8c0f 16bb 7b39 66ba ba94 093b
000001e0: 0cf1 cb39 52ea b93a 77c2 55bb 6af7 30bb
000001f0: 8da0 143b dec2 bcbb 0143 7dba 9fcc b53b
0.0030085668 -0.00490948 0.001563458 -0.003805289 -0.0009408134 0.00018342734 -0.00026435457 0.0027165443
-0.00104223 0.0012666185 5.6009194e-05 0.0051256237 -0.0060993517 0.00014554315 -0.00839994 0.0006918351
0.0010574705 0.014901794 0.0075809653 -0.0031011014 0.0011307613 0.004184513 -0.0028686232 0.0036229042
0.0053547574 0.0033599045 -0.00013145125 0.0016875654 -0.0017689049 0.0017690905 0.011089423 -0.0068784254
-0.0022314375 -0.016738992 0.0043168566 -0.0034367284 -0.0012671306 0.0027737033 -0.0036946991 -0.0010733942
0.003978426 0.0070964894 0.0070448816 -0.001268947 0.00063856767 -0.0054747732 -0.007130153 0.0047421614
0.0016226247 0.00067844766 0.0035044553 0.0059228335 -0.0035041766 -0.0012952841 3.2384414e-05 -0.0019939637
-0.006793869 0.00014080708 0.0066200066 -0.001971893 -0.0058266264 0.004645556 -0.00024248702 0.002204056
0.00015542196 0.0012430452 0.0020386945 -0.0026129698 -0.0014922463 -0.0012673155 -0.009628439 0.0040497296
0.0029962794 0.0016730556 0.0057114344 0.0032244364 -0.00041293452 0.0040461384 -0.0013474959 0.0031994213
0.00026088496 -0.008859484 0.0018934396 0.0034041395 -0.0034291558 0.0012049029 0.0015191197 -0.0061851335
0.0027451674 -3.602857e-05 0.004266876 0.0022538388 -0.00079533574 -0.0027679743 0.0030432025 -0.0033500018
0.002200549 -0.002259612 -0.008121016 -0.00035533393 0.0037265376 -0.0046639787 0.0014672108 0.0012002295
0.0034014352 -0.0039680647 0.005761128 -0.0023540999 0.007252545 0.00395641 -0.00070192694 -0.0057515306
-0.0020104628 -0.0009987089 -0.001341877 -0.009393123 3.5832938e-05 -0.002289745 -0.0008782369 0.002099319
0.0003889877 0.0014184213 -0.003261713 -0.002700294 0.0022678704 -0.0057605347 -0.00096611684 0.0055480744

exp_avg_sq f4 [128]
00000000: 0b98 123a f675 313a 5942 9b39 d9fe b73a
00000010: a422 0b3a 30aa 883a 57a5 033a 3eed dd39
00000020: dd6d 8a39 3c89 cd39 c2cf ff39 c3ee 203b
00000030: cd11 3b3a 638d e139 ffdb 063b aa74 113a
00000040: e435 d739 b52f 2c3a e165 193b 1970 b239
00000050: db9f cd39 c0f8 cc3a 071c e239 201a 223a
00000060: dd90 723a e56d 1b3a 7efa 9d39 a453 d739
00000070: d2ca 213a d06d b939 4023 913a f7ce 243a
00000080: 7950 833a c577 a83a b20b 0f3b 2ccf 9839
00000090: f652 7c3a dbf0 c039 76b0 fc39 b6fb 633a
000000a0: 6a18 b839 d67c 013a a35d a339 0ccf ed39
000000b0: d6e0 643a 060c 843a fb70 653a 8c9a ec39
000000c0: 1e5e e439 942e e539 2a1d 2a3a 79e4 163a
000000d0: abbe f339 3df0 643a 47af 573a 2ede 3c39
000000e0: 72f3 5e3a d98a 4b39 8530 be39 83c2 a739
000000f0: 3af2 433a 4c58 4c3a d492 2b3a 37c8 8d39
00000100: 5b66 133a e34d 5d39 b4ad 8439 df37 1b3a
00000110: 5ffb b239 599a 003a 87dc 953a 21e2 0e3a
00000120: 5e2b 323a cb34 8a3a 0bc7 183a e627 bf39
00000130: 775b ad39 3e33 d13a c5c8 c039 4bb8 283a
00000140: f44e 333a 40ad 303a 00da 5c3a dc18 3e3a
00000150: 8aeb 083a 9030 173a 313c 8739 753b 013a
00000160: 98bf 233a 3786 193a aae9 453a 6191 6739
00000170: 9cb3 d63a 5f9b 9139 0c03 403a 8105 0a3a
00000180: 6c87 a939 f133 fd39 cc2a 323a f9f8 dd39
00000190: 3260 603a 5322 9639 c069 9f39 9cfb 053a
000001a0: 0523 a239 e517 ed39 c785 2d3a 1ca1 873a
000001b0: 89b5 853a 9629 623a cb48 473a b431 a33a
000001c0: f786 e739 8b7d 0a3b 85fe d439 0628 9c3a
000001d0: 628c f739 8ec9 083a 5100 9539 2d32 a639
000001e0: 95d8 093a 4f5d d439 6907 363a 5f47 c139
000001f0: bd2d 703a e115 6d3a ff1b d539 3008 423a
0.0005592114 0.0006769592 0.00029613337 0.0014037743 0.0005307591 0.0010426696 0.0005021891 0.00042329164
0.00026403266 0.00039202895 0.00048792182 0.0024556376 0.00071361364 0.00043020686 0.0020577905 0.00055486953
0.00041048147 0.0006568388 0.0023406672 0.00034034325 0.0003921975 0.0015638098 0.0004312696 0.00061837025
0.00092531537 0.00059291563 0.00030132005 0.00041070313 0.0006171885 0.00035367766 0.0011073127 0.00062869437
0.001001849 0.0012853077 0.002182704 0.00029146054 0.0009625399 0.00036800545 0.0004819666 0.00086968706
0.00035113405 0.00049395615 0.00031159548 0.00045358425 0.0008731013 0.0010074384 0.0008752492 0.00045128574
0.00043557672 0.00043712987 0.0006489331 0.0005756091 0.0004649063 0.0008733308 0.00082277175 0.00018011846
0.0008504904 0.00019411313 0.00036275774 0.00031997645 0.0007474754 0.00077951397 0.00065450114 0.00027042787
0.0005622857 0.00021105217 0.0002530642 0.0005921106 0.00034138092 0.0004905812 0.001143352 0.0005450566
0.00067966233 0.0010544298 0.00058279996 0.00036460086 0.00033065278 0.0015960706 0.0003677068 0.0006436153
0.0006840073 0.00067396834 0.00084248185 0.0007251629 0.00052230863 0.0005767429 0.00025794053 0.0004929819
0.0006246506 0.00058564864 0.0007549772 0.00022084035 0.0016380432 0.00027772316 0.0007324673 0.00052651024
0.0003233509 0.0004829462 0.00067965384 0.00042337904 0.0008559256 0.00028635803 0.00030405633 0.000511104
0.0003092514 0.00045221965 0.00066193606 0.0010347697 0.0010201196 0.00086274126 0.00076020946 0.0012450726
0.0004416031 0.0021131958 0.00040625423 0.0011913783 0.00047216105 0.0005218022 0.0002841973 0.0003169937
0.00052584085 0.0004050531 0.0006943853 0.00036865004 0.0009162089 0.0009044093 0.00040647385 0.0007401733

exp_avg f4 [64, 128]
00000000: fb69 6538 8c42 b139 6d4e e2b9 5924 9639
00000010: 029a be39 3821 0a39 b985 87b8 bad1 b538
00000020: fb66 8439 7db4 f7b9 e345 9ab9 b7c3 2eb9
00000030: 5989 2fb9 cc34 243a 82a5 f4b8 47e9 8a39
00000040: 6070 3639 7155 a9b8 e0cb a9b9 6079 143a
00000050: b017 bfb8 f548 083a 2134 48b9 10ee deb7
00000060: 55e9 30b8 134a 4cb9 7c15 d539 7598 dfb9
00000070: 09ca 3b39 72ea 61b9 bc3d afb8 8ec5 cd39
00000080: 311a 9c39 944b f139 48f8 cfb8 e933 2cb9
00000090: 35d7 123a 5651 a939 11d8 3b39 5bff acb7
000000a0: f621 84ba 57b3 b0b9 3a4d c9b8 9db2 cf39
000000b0: 06c9 c239 11f6 6a39 8e5e 30b9 ab1a 9839
000000c0: ff8d 94b9 6036 623a 0922 64b9 ce2b 32b9
000000d0: 6df0 be39 6c05 3b39 4b65 bf37 1332 e9b9
000000e0: 1f70 0fb8 9664 b339 ab03 1fba d477 d238
000000f0: ba6d 62b9 37ee 86b9 1ae5 e2b8 9943 d1b8
00000100: 00f9 70b9 5f99 c238 b70c 90b9 7a2c 99b9
00000110: bc8e 87b9 2983 5039 7a3a 12b8 dd28 47b9
00000120: 6853 1eb9 31c6 03ba 92ce b8b9 217c 9d39
00000130: 82a0 44b9 07dc 65b9 814e 5838 efe5 7238
00000140: afa3 d139 177f e435 1646 c438 0397 fab9
00000150: 7ef1 ed38 7aa3 a3b8 737b 17b8 b82f ad37
00000160: d3c7 e6b7 c4e9 7eb9 1a40 44b9 5d32 1fb7
00000170: 72e2 8d39 d97b 7cb9 5879 6fb9 e507 93b9
00000180: 02d1 b2b9 0696 d3b8 c4b1 6634 f439 bcb9
00000190: a13a 023a 3c00 3ab8 2141 91b9 cff4 dcb9
000001a0: 9e0d 90b9 ad46 5b39 5fa2 f138 09db b839
000001b0: 6990 8ab9 059c 0f39 ad24 c6b9 d8e7 1538
000001c0: 011e 6736 ea0f 3037 fef2 8eb9 b70d 103a
000001d0: 7702 ba39 ba09 0438 accd eeb8 2938 2338
000001e0: fb9e ae39 304e df39 64ab 9538 e4f0 9939
000001f0: 76f8 0b3a 9bc3 8a39 fa06 d0b9 81e2 50ba
00000200: d2af 7d39 b3cc 08b7 bb28 d739 6b58 3d39
00000210: c754 b4b9 d00c 3a39 e1d6 8738 629b 77b9
00000220: 335d 9139 63ff ab39 2903 e038 2a86 2cb9
00000230: e6b9 4939 21ef a039 a13e 33b9 10e7 3539
00000240: 156e 62b9 f9c4 ca38 28a7 4d39 5b3e a939
00000250: df99 5239 fdaa 30b7 3a89 9cb8 b573 0db9
00000260: 1eb5 44b9 f2eb 2bb9 35e0 4bb9 28c9 2ab9
00000270: 12d2 85b8 a8b2 2138 bcef e238 7a9b 1e39
00000280: 3cac 3039 e162 2b39 efca 23b9 288f 1eb7
00000290: a54e 7db9 8a25 023a afe0 4439 553d 3239
000002a0: 9653 a839 8ad5 7e39 2f9a 8438 15bf 3339
000002b0: 00fb feb8 1450 b6b8 e99a 2fb9 cbd3 9138
000002c0: 6f4f 8639 716f 1539 01a1 89b9 f2e5 d937
000002d0: 838b e3b8 a98c 8e39 9932 0939 095e 7fb9
000002e0: 8de5 a0b7 9797 2939 230d 85b9 240f 48b9
000002f0: 53ca 0f38 d3d5 0639 7a23 bcb9 0ae3 9638
00000300: ee0f 2039 5f99 a0b7 a020 8339 7063 1239
00000310: c210 8d39 1eb1 56b8 0583 5d39 4711 1139
00000320: 6232 5838 c6d5 5039 ae25 3838 5830 6cb9
00000330: 73a4 e338 0600 9438 6c04 f9b4 8ca8 c239
00000340: 53d1 f0b9 4358 f8b8 1e48 ef37 2158 8eb8
00000350: 61f2 a1b8 aac9 cdb7 8d20 3c39 30cd ba38
00000360: e200 51b9 c808 9b38 5237 c137 d06c 9538
00000370: 47de f4b8 2479 b7b9 74a5 a639 df07 3fb9
00000380: 4076 9eb9 ceb5 2eb9 24da 3339 29e6 aab9
00000390: b2ad 8db9 0870 8239 beaf ed38 debb a3b7
000003a0: f84d 2db9 ea18 9bb8 9bb7 2b39 b3c7 1c39
000003b0: 5c48 7a39 f72e 35b9 9ce2 8439 d160 8037
000003c0: c4da 9b39 9a08 62b9 7390 fab9 faff 85b9
000003d0: 180a 09b9 9b41 1c39 0994 6eb8 0eb9 67b9
000003e0: b3cb 32b9 3f22 07b9 07db 24b9 6090 32b9
000003f0: 3434 59b9 2c47 8d39 947c a1b8 6770 6439
5.4696557e-05 0.00033809652 -0.0004316451 0.0002863731 0.0003635437 0.0001317308 -6.4622094e-05 8.669817e-05
0.00025253728 -0.00047245985 -0.0002942524 -0.00016666843 -0.00016740467 0.0006263971 -0.00011665655 0.00026495216
0.00017398736 -8.074463e-05 -0.0003238609 0.0005663838 -9.112002e-05 0.000519886 -0.00019092906 -2.6575319e-05
-4.2178977e-05 -0.00019482551 0.00040642533 -0.00042647464 0.00017908974 -0.0002154501 -8.356149e-05 0.00039247837
0.00029774153 0.00046023412 -9.916775e-05 -0.00016422536 0.00056015264 0.00032294792 0.000179142 -2.0622907e-05
-0.0010080922 -0.00033702955 -9.5988114e-05 0.00039615194 0.00037152338 0.00022407646 -0.00016819892 0.00029011568
-0.00028334555 0.00086293183 -0.00021756453 -0.00016991721 0.00036418755 0.0001783573 2.2816143e-05 -0.0004447853
-3.4198278e-05 0.00034216483 -0.0006065915 0.000100359 -0.00021593916 -0.00025735956 -0.00010819193 -9.978488e-05
-0.00022980943 9.2792085e-05 -0.00027475294 -0.00029215572 -0.00025855552 0.00019885287 -3.4863573e-05 -0.00018993342
-0.00015099125 -0.0005026786 -0.00035249122 0.00030037857 -0.0001875181 -0.00021921108 5.1571526e-05 5.791144e-05
0.0003998554 1.7024312e-06 9.359063e-05 -0.00047796228 0.00011346022 -7.8028956e-05 -3.6116176e-05 2.0645428e-05
-2.7511187e-05 -0.00024310412 -0.00018715896 -9.488865e-06 0.0002706233 -0.0002407873 -0.0002283802 -0.00028043907
-0.0003410653 -0.00010089208 2.148509e-07 -0.00035901333 0.0004967843 -4.4346074e-05 -0.0002770508 -0.00042144067
-0.00027475966 0.00020911796 0.000115220195 0.0003525841 -0.00026429005 0.00013695665 -0.00037792829 3.574029e-05
3.4439147e-06 1.0494123e-05 -0.00027265394 0.0005495208 0.0003547852 3.148031e-05 -0.00011387034 3.891453e-05
0.00033306316 0.0004259213 7.136798e-05 0.00029361912 0.0005339453 0.0002646715 -0.0003967805 -0.0007968322
0.00024193458 -8.153892e-06 0.00041038342 0.00018057383 -0.0003439544 0.00017743115 6.477326e-05 -0.0002361364
0.00027725994 0.0003280594 0.00010681741 -0.00016453178 0.00019238106 0.00030695743 -0.00017094101 0.00017347583
-0.00021594048 9.6687996e-05 0.00019612594 0.0003228065 0.00020084482 -1.0530229e-05 -7.46422e-05 -0.00013489912
-0.00018759488 -0.00016395727 -0.00019443112 -0.000162874 -6.381063e-05 3.8551778e-05 0.00010821174 0.00015125974
0.0001684883 0.00016344666 -0.0001562049 -9.450865e-06 -0.00024157258 0.00049647 0.00018775718 0.00016998251
0.00032105733 0.00024302877 6.3229694e-05 0.00017141954 -0.00012158416 -8.693352e-05 -0.00016747009 6.953588e-05
0.00025617654 0.00014251262 -0.00026250634 2.5975492e-05 -0.000108501896 0.0002718915 0.00013084187 -0.00024353726
-1.918038e-05 0.00016173568 -0.00025377524 -0.00019079127 3.4282286e-05 0.00012858892 -0.00035884586 7.194847e-05
0.00015264723 -1.9144905e-05 0.00025010575 0.00013960688 0.000269061 -5.118653e-05 0.00021125011 0.00013834714
5.1545336e-05 0.00019916063 4.390411e-05 -0.00022524723 0.000108548345 7.057194e-05 -4.6383082e-07 0.0003712814
-0.00045932326 -0.000118420015 2.8524602e-05 -6.787503e-05 -7.722225e-05 -2.4531812e-05 0.00017941203 8.90739e-05
-0.00019932122 7.3926116e-05 2.3033153e-05 7.1251416e-05 -0.00011676229 -0.00034994737 0.0003178526 -0.00018218112
-0.00030224212 -0.0001666166 0.00017152034 -0.0003259641 -0.0002702303 0.00024879002 0.00011333775 -1.9518597e-05
-0.00016527611 -7.3956166e-05 0.00016376229 0.00014951713 0.00023868814 -0.00017279001 0.0002534584 1.5303873e-05
0.00029726897 -0.00021556244 -0.0004779134 -0.00025558454 -0.00013069098 0.0001490176 -5.688149e-05 -0.00022098815
-0.00017051287 -0.00012887361 -0.00015721853 -0.00017029187 -0.0002071418 0.00026946643 -7.700283e-05 0.00021785648
