Bonus Exercise/exercise_11/lightning_logs/version_15/checkpoints/epoch=10.ckpt (torch_old, 353090 bytes, 24 tensors)

exp_avg f4 [128, 28]
000000 a2 c2 23 3b 0d c4 23 3b 59 f3 1f 3b 21 df 85 3a
       0.0024987836 0.0024988682 0.002440652 0.0010213592
000010 05 f1 30 bb 48 c5 34 bb 82 bb 49 bb d1 22 2f ba
       -0.0026999128 -0.002758341 -0.003078193 -0.0006680908
000020 6d 03 eb 39 4f 7c 1a bb 0c d2 b5 bb 6e 05 b9 bb
       0.00044825245 -0.002357263 -0.005548721 -0.005646399
000030 cc 22 7e bb 56 e5 82 bb 9f 7a f6 bb b9 36 e6 bb
       -0.0038778065 -0.003994624 -0.007521942 -0.0070255664
000040 3d d0 b2 bb 0f c0 96 bb 92 03 f2 bb 99 e3 1d bc
       -0.005456953 -0.004600532 -0.0073856795 -0.009636783
000050 3f 45 46 bb 2c 7d c3 ba 0e b6 3f 39 a1 1b a1 3a
       -0.0030253676 -0.0014914623 0.00018283 0.0012291559
000060 aa 45 e3 3a 88 52 2b 3b 41 7b 23 3b 37 c2 23 3b
       0.0017339487 0.0026141722 0.0024945291 0.0024987587
000070 1c e6 60 3b ef 02 61 3b e7 18 5f 3b 91 09 43 3b
       0.0034316843 0.0034334024 0.0034041943 0.002976034
000080 af 87 26 3b 3f 9e 3e 3b 89 00 1c 3b 42 e9 67 3a
       0.0025410464 0.0029086021 0.002380403 0.0008846709
000090 5e 56 dc 3a b5 43 0c 3b c3 fa 13 3b 93 7f 42 3b
       0.0016810407 0.0021402661 0.0022579886 0.002967809
0000a0 e4 fa ab 3b de 60 8e 3b 7b 9f c0 3a 12 fb 90 39
       0.0052484144 0.0043450436 0.0014695966 0.00027652882
0000b0 a5 d7 03 bb e8 5e 1e bb 3f df 28 bb cf d7 1e ba
       -0.0020117548 -0.0024165455 -0.002576783 -0.00060593797
0000c0 45 75 dc 39 1d 2f 3f b9 86 ec 48 39 17 f6 a0 3a
       0.00042049043 -0.0001823273 0.00019161598 0.0012280372
0000d0 99 23 0c 3b d4 b0 64 3b 91 d0 60 3b 5a d9 60 3b
       0.0021383523 0.0034895437 0.0034304003 0.003430924
0000e0 48 6a f0 3a 6b f1 ec 3a 95 69 e9 3a 2c de df 3a
       0.0018342221 0.0018077319 0.0017807955 0.0017079762
0000f0 a3 6c ec 3a 52 cb d2 3a 2a 75 2e 3b 94 0e 53 3b
       0.0018037747 0.0016082323 0.0026620128 0.0032204734
000100 f8 63 b6 3a f3 6d b9 ba a0 1e ce ba 82 9b a5 ba
       0.0013915291 -0.0014147147 -0.001572568 -0.0012634846
000110 4a 79 76 b9 f6 61 b2 3a d4 50 93 b9 da ee e2 3a
       -0.00023505572 0.0013609517 -0.00028098247 0.0017313615
000120 76 dc c9 3b 63 77 07 3c ff 29 92 3b b6 c0 0e 3b
       0.006160314 0.00826821 0.0044605727 0.0021782345
000130 5d 34 25 3a f8 f3 f3 3a 55 78 23 3b 84 da f2 3a
       0.0006302053 0.0018612137 0.002494355 0.0018528257
000140 22 c8 fb 3a eb a0 e8 3a 17 2a f0 3a f0 69 f0 3a
       0.0019209424 0.0017748153 0.0018323091 0.0018342119
000150 7b 6d a8 3a 30 ff ae 3a fc 46 b4 3a 9c 86 b4 3a
       0.001285001 0.0013351198 0.0013754065 0.0013773027
000160 25 c6 d2 3a 87 32 42 3a 62 15 99 38 09 6d 42 3a
       0.001608078 0.0007408042 7.2995914e-05 0.000741676
000170 4d f5 05 3b 0b 7b 2b 3b a3 1e 60 3b 41 51 cf 3b
       0.00204404 0.0026165869 0.0034197948 0.006326825
000180 9b 35 b4 3b 63 70 8c 3b 04 63 d2 3b 0d 8a a4 3b
       0.0054995543 0.0042858585 0.006420495 0.0050213397
000190 a3 d9 93 3b 2e 9b 09 3b 88 19 87 ba bd 44 8a 37
       0.0045120283 0.0020997035 -0.0010307292 1.648289e-05
0001a0 1d 18 b3 3b cd 98 b2 3b dc 94 09 3b 69 dc 85 3a
       0.005465521 0.005450344 0.0020993268 0.0010212782
0001b0 64 e6 77 3a b3 52 a9 3a 95 a7 a8 3a 42 97 a8 3a
       0.0009456633 0.0012918323 0.0012867326 0.0012862461
0001c0 6e 94 98 bb bd a0 99 bb dd 62 9a bb f4 27 a3 bb
       -0.004656366 -0.004688351 -0.0047114925 -0.004979128
0001d0 d3 aa 99 bb 86 5b a0 bb 3e c1 a6 bb 95 3e 45 bb
       -0.0046895533 -0.004893723 -0.005088954 -0.0030097116
0001e0 b3 28 27 bb 39 1e b8 bb 50 f9 b6 bb d9 e8 6e bb
       -0.0025506436 -0.005618837 -0.0055839196 -0.0036454706
0001f0 66 f9 3c bb 51 2b 68 bb 39 a4 97 bb 87 7f a0 bb
       -0.0028835176 -0.003542621 -0.004627731 -0.004898015
000200 20 1e 7a bb f1 a2 b7 ba 6b 16 43 ba 93 04 a5 bb
       -0.0038164929 -0.0014010352 -0.0007442 -0.0050359457
000210 7a 13 e7 bb a9 ab d5 bb 58 7e c5 bb 88 fe b3 bb
       -0.0070518823 -0.0065207076 -0.0060270242 -0.005492989
000220 ad 5b a5 bb b5 70 96 bb 53 92 98 bb 21 95 98 bb
       -0.005046329 -0.0045910724 -0.004656115 -0.0046564494
000230 71 35 88 bb ce 0a 8a bb 67 b7 8a bb b6 49 93 bb
       -0.0041567613 -0.004212714 -0.004233289 -0.004494871
000240 bc 5b 8c bb f7 4c 95 bb f5 13 9e bb d8 3c c1 b9
       -0.0042833965 -0.004556294 -0.0048241564 -0.0003685716
000250 fc 62 f7 3b 84 5b 48 3b 24 3c 55 3b ed 4a 5d 3b
       0.0075496417 0.0030572126 0.0032537067 0.0033766583
000260 7d 15 9d b8 89 45 e9 ba 44 48 ff ba 40 29 77 3a
       -7.490346e-05 -0.0017797212 -0.0019476493 0.0009428449
000270 08 71 0d 3b 02 fd 9e 3b b6 b3 90 3b 09 ac c5 bb
       0.0021582264 0.004851938 0.0044159545 -0.006032471
000280 b1 44 14 bc 63 87 b2 bb 2e 0b 9f bb dc 23 91 bb
       -0.00904958 -0.0054482683 -0.0048536276 -0.0044293236
000290 73 f6 8b bb e4 1a 8d bb fb 7b 88 bb 95 3d 88 bb
       -0.0042713224 -0.004306184 -0.0041651702 -0.004157732
0002a0 67 f0 9b 39 df f3 a1 39 2f e8 ad 39 88 1d 39 3a
       0.00029743018 0.0003089001 0.00033170122 0.00070615904
0002b0 dd 9e e0 36 a2 30 8e ba 48 27 a2 ba f4 3c 44 bb
       6.6942143e-06 -0.0010848234 -0.0012371326 -0.0029943557
0002c0 c6 fe ed ba d6 18 bd 3a 8f d7 42 3b 2d 39 03 3a
       -0.0018157593 0.0014426957 0.0029730534 0.0005005773
0002d0 91 89 31 39 5c 32 75 3a 03 5b b4 bb f1 34 1b bc
       0.00016931283 0.00093535124 -0.0055040135 -0.009473071
0002e0 11 44 0d bc db 80 09 bb fd 16 90 39 ec 0f bc 3a
       -0.008622185 -0.0020981345 0.00027482948 0.0014348007
0002f0 63 bb 62 3a e2 f2 e4 3a 1c e3 16 39 fc dd 14 ba
       0.00086491386 0.0017467404 0.0001438972 -0.000567883
000300 d9 61 32 ba 68 9a b7 39 c2 d4 a5 39 30 f3 9b 39
       -0.00068047416 0.00035019522 0.0003162977 0.00029745093
000310 62 c4 b2 3b 67 cb b2 3b ee 07 b3 3b 0c f9 b7 3b
       0.0054555396 0.0054563764 0.005463592 0.0056144055
000320 f3 6f b0 3b 51 af a4 3b 22 2f b6 3b c6 4f c8 3b
       0.005384439 0.005025782 0.005559818 0.0061130254
000330 21 35 04 3c 4f e0 0a 3c 63 62 c6 3b e2 12 66 3b
       0.008069308 0.008476331 0.006054209 0.003510647
000340 79 b0 ed ba 06 5c 01 bb cc 97 e8 ba b8 26 9a 3a
       -0.0018134258 -0.0019738688 -0.0017745434 0.0011760807
000350 0f 96 71 3b 0f 34 90 3b 6c 10 b0 3b db 83 c7 3b
       0.0036863124 0.004400737 0.0053730514 0.0060887164
000360 17 f2 e9 3b d2 9f e2 3b 58 94 db 3b c3 8b de 3b
       0.007139455 0.0069160247 0.0067010336 0.0067915632
000370 65 05 d6 3b 73 5f b2 3b bf 01 b3 3b 09 c1 b2 3b
       0.006531405 0.0054435073 0.0054628546 0.0054551405
000380 a6 67 9c ba af 72 9c ba d1 4b 9c ba 9c b3 a5 ba
       -0.0011932745 -0.0011936034 -0.001192445 -0.0012642029
000390 fb d3 76 ba 69 6f 5f b9 67 f1 06 ba e2 7f 8f b9
       -0.0009415743 -0.00021308441 -0.0005147666 -0.00027370366
0003a0 e0 d1 ac 38 14 52 84 ba d6 5f 08 ba b9 a1 94 b8
       8.2406914e-05 -0.0010095262 -0.0005202269 -7.087313e-05
0003b0 f6 65 28 ba 04 67 fe ba d9 43 cf ba ff 1c 0f bb
       -0.0006423885 -0.0019409363 -0.0015813067 -0.0021837351
0003c0 51 7e 34 bb 65 5f f0 ba 8d cb 1f b9 ff c9 99 ba
       -0.002754111 -0.0018338977 -0.0001523925 -0.0011733173
0003d0 fa 2d bd ba af 8f 24 ba 8e 89 b1 b8 2f be 45 39
       -0.0014433258 -0.0006277514 -8.465639e-05 0.00018858233
0003e0 67 53 65 b9 09 12 9b ba 99 20 9c ba 87 67 9c ba
       -0.00021870212 -0.0011830936 -0.001191157 -0.0011932709
0003f0 47 0b 42 ba 3f 5a 3f ba 3b 71 37 ba 05 9c 82 ba
       -0.0007402193 -0.00072995195 -0.00069977687 -0.000996471

exp_avg_sq f4 [128, 28]
000000 91 85 fb 39 e2 8b fb 39 6c 46 fb 39 a2 8d fa 39
       0.00047973965 0.00047978672 0.0004792692 0.0004778924
000010 b5 62 f8 39 20 65 f0 39 a7 12 e6 39 9f f6 d4 39
       0.0004737579 0.0004585171 0.00043882916 0.00040619538
000020 d2 16 c1 39 ce e5 a9 39 fa d4 96 39 a9 03 82 39
       0.0003682883 0.0003240541 0.0002876891 0.0002479826
000030 60 39 80 39 96 42 79 39 91 30 85 39 dc 56 91 39
       0.0002445681 0.00023771296 0.00025403922 0.0002772127
000040 0b 20 99 39 5d e1 b0 39 4a e8 c0 39 df 6c cc 39
       0.00029206308 0.00033737245 0.00036794163 0.00038991027
000050 f8 b9 e4 39 af 7a f5 39 9d 57 fa 39 17 91 fc 39
       0.00043626106 0.00046821448 0.00047748993 0.00048173286
000060 9a b2 f9 39 f4 2d fb 39 78 47 fb 39 0a 85 fb 39
       0.0004762605 0.00047908688 0.000479277 0.00047973573
000070 2e 42 56 3a bc 39 56 3a 06 dd 55 3a a0 ac 53 3a
       0.00081733137 0.0008172055 0.000815824 0.00080747344
000080 e6 6e 4c 3a 6d 84 3d 3a c2 7f 2c 3a 28 bc 17 3a
       0.00077985076 0.0007229511 0.00065803167 0.00057882303
000090 49 14 02 3a 21 79 db 39 60 b1 b5 39 48 42 9b 39
       0.0004962129 0.00041861183 0.00034655165 0.00029613287
0000a0 cd 4c 8b 39 80 19 80 39 4d c7 71 39 b7 94 7a 39
       0.00026569367 0.00024433061 0.00023057796 0.00023897259
0000b0 98 04 9d 39 e4 de d1 39 38 e5 f6 39 cc 33 0e 3a
       0.00029948796 0.00040029653 0.00047091558 0.00054245885
0000c0 70 cb 24 3a 6b 90 37 3a fd e7 44 3a d2 e7 4d 3a
       0.0006286418 0.0007002416 0.00075113756 0.00078546733
0000d0 d6 c8 51 3a ae 7a 55 3a e8 f6 55 3a 2d 36 56 3a
       0.0008002644 0.0008143586 0.0008162097 0.0008171525
0000e0 3b 32 83 3a 57 2f 83 3a 37 23 83 3a 53 3f 81 3a
       0.0010009477 0.0010008615 0.0010005002 0.0009860791
0000f0 c8 fa 76 3a 04 13 60 3a 2f 17 4a 3a 0f 42 34 3a
       0.00094215246 0.00085477554 0.0007709143 0.00068762986
000100 10 76 1b 3a 90 83 03 3a 5d 94 e1 39 f6 24 ca 39
       0.00059303734 0.0005016858 0.00043025883 0.0003855598
000110 fd 03 ba 39 07 b0 b3 39 3f 3e bf 39 40 87 d2 39
       0.00035479656 0.0003427269 0.00036476736 0.0004015509
000120 46 9b f6 39 86 b9 16 3a 9c 0c 2e 3a 74 b4 3e 3a
       0.00047036464 0.0005749691 0.0006639452 0.00072748144
000130 29 b2 4e 3a 7e 5c 5d 3a ff ae 6a 3a 01 05 77 3a
       0.00078848243 0.00084442634 0.0008952468 0.0009423048
000140 b3 0f 80 3a 98 2e 83 3a eb 41 83 3a 94 32 83 3a
       0.0009770304 0.0010008393 0.0010014152 0.001000958
000150 9f 61 2a 3a 55 62 2a 3a 9e 4c 2a 3a 88 39 29 3a
       0.0006499532 0.0006499638 0.0006496402 0.0006455411
000160 d1 cb 25 3a 4f 88 1a 3a 25 3c 0e 3a c4 88 ff 39
       0.00063246215 0.00058949454 0.00054258324 0.00048739288
000170 c9 01 e1 39 f9 5d c2 39 6f 76 ab 39 91 8a a8 39
       0.00042916674 0.0003707258 0.00032703902 0.00032146697
000180 59 b0 b2 39 6c d4 c7 39 4e 30 e9 39 70 e0 01 3a
       0.00034082195 0.00038114504 0.00044477213 0.0004954403
000190 52 77 09 3a d8 02 0a 3a 29 a6 07 3a 1f f5 08 3a
       0.00052439154 0.0005264706 0.0005174601 0.0005224514
0001a0 8f 50 0e 3a 51 a6 16 3a 08 ab 1d 3a 52 fe 22 3a
       0.0005428874 0.0005746829 0.00060145603 0.0006217706
0001b0 c1 02 28 3a 45 b3 2a 3a fe 83 2a 3a c8 61 2a 3a
       0.0006409102 0.00065116986 0.0006504654 0.0006499556
0001c0 da 00 ca 39 68 02 ca 39 c8 a8 c9 39 65 d2 c8 39
       0.00038529077 0.00038530235 0.0003846346 0.0003830373
0001d0 80 9d c6 39 1a eb bd 39 e9 91 b3 39 c3 6b a3 39
       0.0003788285 0.00036224053 0.00034250252 0.0003117007
0001e0 73 d0 93 39 1b 33 81 39 d5 bb 6a 39 6b f8 52 39
       0.00028193332 0.00024642874 0.00022385952 0.00020119704
0001f0 72 ed 40 39 c0 c8 3b 39 b7 3d 53 39 e9 f7 5f 39
       0.00018399002 0.00017908495 0.00020145519 0.00021359291
000200 4b 80 6b 39 91 a6 87 39 3f a4 99 39 99 01 a6 39
       0.0002245914 0.00025873308 0.00029304807 0.00031663178
000210 4c e6 b2 39 1a 46 c0 39 36 92 c9 39 d4 a6 ce 39
       0.0003412239 0.00036673323 0.00038446643 0.00039415678
000220 d4 9d d0 39 8a 82 cc 39 5b 16 ca 39 81 0a ca 39
       0.00039790443 0.0003900717 0.00038545099 0.00038536268
000230 07 a5 d0 39 3f a3 d0 39 f4 94 d0 39 9c 19 d0 39
       0.00039795807 0.0003979448 0.0003978383 0.00039691932
000240 d6 58 ce 39 ab 32 c6 39 0a 0e c0 39 09 5e b2 39
       0.0003935757 0.00037803254 0.00036631554 0.00034020867
000250 4c c0 ab 39 63 b0 9b 39 b8 fa 8d 39 72 4a 7a 39
       0.00032758934 0.00029695322 0.00027080416 0.00023869591
000260 3a ae 6b 39 80 d3 61 39 8a a4 5f 39 13 62 66 39
       0.00022476251 0.00021536462 0.00021328233 0.00021971045
000270 46 cf 71 39 92 73 84 39 56 98 8f 39 ea 9c a4 39
       0.00023060766 0.0002526311 0.00027388585 0.00031397428
000280 b9 3c bc 39 7b f4 cc 39 0e 91 d4 39 69 1f d9 39
       0.00035903396 0.00039092064 0.00040543865 0.00041412868
000290 5b 8e d7 39 17 b7 d2 39 05 9b d0 39 d2 aa d0 39
       0.0004111406 0.00040190734 0.0003978835 0.00039800123
0002a0 24 44 4f 39 4e 34 4f 39 a9 17 4f 39 53 17 4f 39
       0.00019766443 0.00019760543 0.00019749872 0.00019749747
0002b0 10 c9 4e 39 ce 02 4b 39 67 9a 45 39 5c 73 3d 39
       0.00019720593 0.00019360633 0.00018844903 0.0001806742
0002c0 2b f9 3a 39 31 0a 35 39 68 35 39 39 6d 30 45 39
       0.00017831165 0.00017265302 0.0001766287 0.00018805424
0002d0 4b 1e 54 39 a7 0a 61 39 22 25 5a 39 77 52 3f 39
       0.0002022918 0.0002146164 0.00020803933 0.000182459
0002e0 5c 06 39 39 e6 4a 35 39 1f 6e 33 39 d7 c0 2e 39
       0.00017645344 0.00017289407 0.00017111794 0.00016665772
0002f0 1e 49 3b 39 9e 6a 46 39 07 a1 45 39 c3 96 49 39
       0.00017860948 0.0001892247 0.00018847371 0.00019225017
000300 6a 7f 4e 39 94 60 4f 39 7a 3e 4f 39 4c 47 4f 39
       0.00019693156 0.00019777037 0.00019764333 0.00019767619
000310 b3 42 7b 39 5b 38 7b 39 b9 fd 7a 39 5d 85 7a 39
       0.00023962073 0.0002395822 0.00023936377 0.0002389154
000320 67 b1 7a 39 a4 fc 78 39 14 e7 78 39 b1 6e 78 39
       0.00023907945 0.00023745239 0.00023737206 0.00023692359
000330 74 e9 72 39 b1 2e 6a 39 14 9d 54 39 cd 06 3d 39
       0.00023165887 0.00022333373 0.00020276412 0.00018026978
000340 85 5d 31 39 bc 9f 33 39 69 ee 39 39 9b 02 33 39
       0.00016914874 0.00017130276 0.0001773179 0.00017071741
000350 1e 1e 3a 39 a7 a1 41 39 2f bd 3f 39 04 33 46 39
       0.00017749562 0.00018466134 0.00018285656 0.00018901756
000360 fa 2e 55 39 fd 56 66 39 4e b3 6d 39 b5 25 74 39
       0.00020330763 0.00021966915 0.00022668878 0.000232837
000370 2a e3 78 39 1c 47 7b 39 a1 24 7b 39 5e 45 7b 39
       0.00023735748 0.00023963716 0.0002395087 0.00023963067
000380 48 94 97 39 1d 9b 97 39 16 bd 97 39 a1 d7 96 39
       0.00028911442 0.00028916533 0.00028941844 0.00028770886
000390 56 87 94 39 8a 24 94 39 74 7e 96 39 c7 d1 96 39
       0.00028329593 0.00028255983 0.00028704444 0.00028766526
0003a0 17 3e 93 39 30 20 92 39 c1 90 8c 39 0e a7 87 39
       0.00028084285 0.00027871272 0.0002681073 0.00025873672
0003b0 de 54 80 39 b0 f3 77 39 80 40 63 39 e7 78 6f 39
       0.00024477293 0.00023646536 0.00021672435 0.00022837856
0003c0 2f 12 71 39 21 3b 7c 39 8d 04 7d 39 8e 1f 7e 39
       0.00022990325 0.0002405462 0.00024129656 0.00024235083
0003d0 87 ea 86 39 e6 05 8a 39 a4 a1 8e 39 35 59 92 39
       0.00025733208 0.00026325806 0.00027204782 0.00027913754
0003e0 ba d7 94 39 d2 15 97 39 6a a0 97 39 41 9b 97 39
       0.0002838949 0.00028817222 0.00028920482 0.00028916638
0003f0 69 b5 4c 3a 80 a9 4c 3a 57 9c 4c 3a a5 15 4a 3a
       0.00078090146 0.000780724 0.0007805279 0.0007708914

exp_avg f4 [128, 128]
000000 1c 3d d8 ba 5c 01 f8 bb b9 0e b6 3b 72 ba 64 bb
       -0.0016497704 -0.0075685214 0.0055559543 -0.003490117
000010 9e ef 24 b8 82 25 f9 3a ac d6 52 3b fb 30 6a 3b
       -3.9323808e-05 0.001900837 0.0032171411 0.003573476
000020 25 e6 9c bb a5 52 00 bc 39 0f 57 3b 48 15 c9 3b
       -0.0047881776 -0.007832204 0.003281547 0.00613657
000030 26 b7 11 3c 23 8e 0e bb e3 4e 12 3c c4 89 73 bb
       0.008893764 -0.00217522 0.008929941 -0.0037160972
000040 42 04 3b 3b 80 e4 1f bb ea 4f 33 b9 dd 33 63 ba
       0.0028536473 -0.0024397671 -0.0001710054 -0.0008667091
000050 b5 6b f1 3a 39 36 3f 3a 22 35 30 3a aa 7c 44 bb
       0.001841894 0.00072941516 0.00067217846 -0.0029981532
000060 1a b4 29 3b 18 ce 0a 3b 55 61 06 3c 82 69 a6 3b
       0.0025894702 0.002117997 0.008201917 0.0050784955
000070 38 5e 22 bc 2d ee fb 3a b1 f5 d6 3b 6a 49 2b 3a
       -0.009910159 0.0019220762 0.0065600504 0.0006534072
000080 2c eb 22 bb ca 10 c6 bb 00 76 da b8 e7 59 45 bb
       -0.0024859412 -0.006044482 -0.00010417029 -0.00301134
000090 dc ed bd 3b 8a 49 6d bb 52 ea f3 bb 50 65 09 bc
       0.0057961773 -0.0036207163 -0.0074437046 -0.008385971
0000a0 61 30 16 bb 4a ae cc bb 8a 5f d4 3b 62 8a 17 bc
       -0.002291702 -0.006246363 0.0064811157 -0.009249302
0000b0 d8 4c 7b 3b 4a 72 51 bb 1d bd d1 ba 48 79 af 3b
       0.0038345363 -0.003195899 -0.0016001795 0.005355034
0000c0 a9 f0 42 3b ef c3 19 bc 40 cb 0e bc 50 da 43 bb
       0.0029745495 -0.009385093 -0.008715451 -0.0029884763
0000d0 19 86 56 3b 60 53 dc 3a bd 74 d7 3a 2c 37 38 b9
       0.0032733737 0.0016809516 0.0016437989 -0.0001756816
0000e0 87 58 25 bc 5e 0b b4 ba 6d b6 c5 39 69 22 9c bb
       -0.010091907 -0.0013736298 0.00037710686 -0.004764844
0000f0 05 ad 12 3c b2 d7 23 bc 76 d8 de 3b e9 7c 10 3b
       0.008952384 -0.010000156 0.0068007065 0.0022047109
000100 7f b6 5d 3b 27 91 30 3b 05 ca f8 bb ec 27 35 bb
       0.00338307 0.0026941986 -0.007592442 -0.0027642203
000110 7a 33 13 bb 87 fb fe 3a 41 dd a0 bb 40 22 d7 3a
       -0.0022461102 0.0019453623 -0.004909188 0.0016413406
000120 65 4b c9 bb b6 e0 56 3b b6 f1 ab 3b c9 04 23 3b
       -0.006143021 0.0032787747 0.00524732 0.0024874678
000130 c7 4c 0f 3c ce 32 e9 3b b8 a4 86 3a ad 1d 52 bb
       0.0087463325 0.007116652 0.0010272479 -0.0032061145
000140 96 07 9d bb 4b 9b 9d 3b 3f 8c 55 3b c1 01 83 bb
       -0.004792164 0.004809772 0.0032584814 -0.003998012
000150 d9 58 23 bb 35 56 03 bc 17 7b 8d ba 2e 1f e9 ba
       -0.0024924784 -0.008016159 -0.001079413 -0.0017785782
000160 fd bf a8 bb b6 6d 2e bb 9d 62 65 3b d1 cf 07 3c
       -0.00514984 -0.0026615686 0.0035001405 0.008289293
000170 bc 82 77 bb cf dd 9e bb 97 99 a9 3b fe a3 ce bb
       -0.0037767133 -0.004848219 0.00517578 -0.0063061705
000180 4c 9d 5d bb 20 06 9d bb 01 15 01 bc 63 1b c5 bb
       -0.003381568 -0.00479199 -0.007878543 -0.0060152276
000190 3b af 86 3b 29 f4 5a 3a ec ce 03 3b 23 a1 16 3c
       0.0041102446 0.0008352423 0.0020112349 0.009193691
0001a0 e7 e9 34 bc 94 8e 43 3b 04 86 74 bb d2 f4 31 bb
       -0.011042095 0.0029839622 -0.0037311325 -0.002715398
0001b0 05 fe 58 bb a6 2a 07 bc 55 98 52 3a 68 bd 3f 3b
       -0.0033110392 -0.008249914 0.00080335635 0.0029257182
0001c0 c3 80 43 bb 35 6d 87 3b 86 e4 c7 3b f5 fa 8f 3b
       -0.0029831387 0.0041328915 0.00610024 0.00439393
0001d0 15 79 c4 bb 58 09 24 3c cf 49 b6 3b a7 3b d1 bb
       -0.0059958794 0.010011993 0.005562998 -0.006385285
0001e0 2d 03 ef ba 9a 59 cb 3a f2 19 d8 bb e0 c9 ab ba
       -0.0018235199 0.0015514374 -0.00659489 -0.0013106428
0001f0 f7 6f b6 3b ea 07 b2 3b ff 31 0f bc c0 c6 d5 3a
       0.0055675465 0.0054330723 -0.008739947 0.0016309842
000200 c6 3a 6b 3b 4f f8 53 bb 21 6e ae 3a 9a cb 07 bb
       0.0035893186 -0.0032344048 0.0013307967 -0.0020720721
000210 73 ea 89 3a ec 8b f2 3a 6a 07 05 3b bc 10 5d 3a
       0.0010522142 0.0018504835 0.0020298609 0.00084329746
000220 8a f7 48 bb 41 b0 32 3a 16 9a 68 3b 1d 5e f4 b8
       -0.0030665123 0.0006816425 0.0035492233 -0.000116523566
000230 62 42 35 3b 66 3c 5f bb 41 52 4c 3b b6 ab 80 bb
       0.0027657975 -0.00340631 0.0031176957 -0.0039267195
000240 35 c5 b7 3b 4c de 7e bb ea 9d ac ba 61 bd 0d 3b
       0.0056082257 -0.0038889823 -0.0013169621 0.0021627771
000250 ba 72 0b 38 81 19 ce 39 ac 69 8e 3b 8b 1d a9 3a
       3.324703e-05 0.00039310384 0.004346093 0.0012902481
000260 e3 34 88 3b b3 f5 1d 3b 3e 13 0b 3c 1b 03 13 ba
       0.004156695 0.0024102747 0.008488474 -0.0005608068
000270 c1 9c c0 bb ea d5 04 ba b3 6e 9d 3b 5c 14 cd 3b
       -0.0058780615 -0.0005067276 0.004804456 0.0062585305
000280 10 fd 29 bb 5c d4 da ba b3 39 15 bb bd 08 05 bb
       -0.002593819 -0.0016695368 -0.0022769987 -0.0020299398
000290 c3 81 95 3b da b7 c5 bb 6c 4f 05 bc bd d3 cb bb
       0.004562588 -0.0060338797 -0.008136611 -0.0062203095
0002a0 6b 99 a0 3a 10 4c cd ba d7 ae 8b 3b aa 09 cd ba
       0.0012252753 -0.0015662927 0.004262786 -0.0015643139
0002b0 1d 6b ae 39 f6 de 63 b9 98 0b 3b bb 91 3c 77 3b
       0.00033267672 -0.00021731466 -0.0028540846 0.003772531
0002c0 0a cc bf 3b b3 5b 9c bb e0 16 58 bb f1 5f 0c bb
       0.005853181 -0.0047716736 -0.003297262 -0.002141949
0002d0 4e 55 6c 3b ca f1 fe 39 f5 b8 d4 bb f0 5b 83 3b
       0.0036061588 0.00048626802 -0.006491775 0.0040087625
0002e0 08 8f ca 3a d6 f7 ed ba 87 a5 5a bb d4 b9 00 bc
       0.0015454004 -0.0018155526 -0.0033362822 -0.007856805
0002f0 67 d4 c3 3b e2 67 77 bb c3 6a 1b 3b 5a e9 a9 ba
       0.005976248 -0.0037751128 0.0023714758 -0.0012963221
000300 82 18 32 39 5a 29 36 3b 46 4b 98 ba 1a 3a b2 bb
       0.00016984533 0.0027795644 -0.0011619113 -0.005439055
000310 35 73 3c bb 31 72 4c 3b 15 78 75 bb ee 57 8d 3b
       -0.0028755192 0.0031195993 -0.0037455608 0.0043134606
000320 e7 a3 0d bb 55 30 14 bb 7f fb 3b 3b 1d 7d f7 b9
       -0.0021612586 -0.0022611816 0.002868384 -0.00047204728
000330 32 74 43 3b 08 11 82 3a c2 98 0e 3a 07 96 86 bb
       0.0029823896 0.0009923289 0.0005439633 -0.00410724
000340 64 02 5a bb d6 99 5e 3b 19 5a e5 3b 63 fd 28 bb
       -0.0033265585 0.0033966205 0.006999266 -0.0025785796
000350 05 2f 14 bb 56 60 a4 bb 86 04 e9 3a a4 7d 47 bb
       -0.0022611034 -0.005016367 0.0017777837 -0.0030439878
000360 02 35 83 3b 78 dd 0c 3b f2 59 ad b9 af ad aa 3b
       0.0040041218 0.002149431 -0.00033064146 0.005208693
000370 ae 93 ac bb 03 b8 26 bb 89 38 b3 3b 57 f1 1e bb
       -0.005266628 -0.002543927 0.005469386 -0.0024252736
000380 d7 74 26 bb 93 7a a5 ba e3 2b cc bb 67 f4 d5 ba
       -0.0025399232 -0.0012625031 -0.0062308176 -0.0016323448
000390 b6 19 2b 3a 7e f2 62 bb d0 c2 8c 3b a2 88 41 ba
       0.00065269636 -0.00346294 0.0042956844 -0.00073827256
0003a0 ea 98 cd 3a 9c 75 3c 3b 64 a5 8d 3a f1 59 95 bb
       0.0015685831 0.0028756624 0.0010806737 -0.004557841
0003b0 ce 7a 5d bb 07 54 76 bb ba 37 85 3b b1 2e c3 3b
       -0.003379512 -0.0037586705 0.004065481 0.005956494
0003c0 57 d0 a2 bb 31 88 ce 3b 44 f9 a8 3b d6 64 5e 3a
       -0.0049686837 0.0063028564 0.005156668 0.00084836537
0003d0 07 ed f7 ba ff 24 00 3b 2a e5 27 3b 10 7e 32 bb
       -0.0018915244 0.0019553301 0.002561877 -0.0027235784
0003e0 2f 36 cd bb b4 bc f2 38 25 60 07 bb 5f 00 fd ba
       -0.0062625627 0.00011574608 -0.0020656672 -0.0019302479
0003f0 ae 63 27 3a 11 c0 fd ba 4a 7f a7 bb 95 b2 4a 3b
       0.0006385398 -0.0019359608 -0.0051116096 0.0030929197

exp_avg_sq f4 [128, 128]
000000 21 58 ff 38 f4 b8 af 39 8d a0 d1 39 0b 71 df 39
       0.00012175763 0.00033516402 0.00039983206 0.00042618098
000010 7e 1a d2 39 b1 ee c5 39 f0 68 2d 39 c4 45 0c 39
       0.0004007406 0.00037752607 0.00016537658 0.0001337743
000020 68 6a cb 39 17 53 73 39 0e b3 90 39 10 92 d7 39
       0.00038798456 0.00023205239 0.00027599226 0.0004111682
000030 c0 b1 d2 39 c6 6b c1 39 e5 cb 99 39 ad e4 b7 39
       0.00040186755 0.00036892126 0.00029334347 0.00035074857
000040 6a 01 a2 39 b6 39 11 39 c1 a6 91 39 07 aa a2 39
       0.000309001 0.00013849777 0.00027780797 0.00031025728
000050 a1 67 d7 39 a7 7e a6 39 2f ec d7 39 a9 dc 81 39
       0.00041085205 0.0003175635 0.00041183966 0.00024769202
000060 b0 73 90 39 bf 19 a4 39 1c 37 c4 39 8f 66 9f 39
       0.00027552014 0.000312997 0.00037425093 0.00030403255
000070 82 0e d2 39 bd 3c 46 39 df c5 96 39 fe 1b 0d 39
       0.0004006513 0.00018905378 0.00028757655 0.00013457236
000080 fb 1e 46 39 55 1b 88 39 10 0e 9f 39 12 10 90 39
       0.00018894293 0.00025960305 0.0003033732 0.00027477794
000090 bb 98 6c 39 1b aa 54 39 ae e7 9b 39 ab 92 af 39
       0.0002256361 0.00020281265 0.0002973652 0.00033487877
0000a0 dd c2 b5 39 c2 49 41 39 b8 59 ba 39 91 61 ac 39
       0.00034668195 0.00018433391 0.0003554353 0.0003287909
0000b0 9a 7d 49 39 7e 08 5e 39 73 ec b2 39 c8 08 8f 39
       0.00019215644 0.00021174733 0.00034126974 0.00027281628
0000c0 57 a0 71 39 1b 5e f2 39 d2 23 ac 39 0f de 9f 39
       0.00023043282 0.0004622795 0.00032833085 0.0003049229
0000d0 ec 3c 78 39 a8 8a 94 39 96 59 73 39 f0 bf da 39
       0.00023673818 0.00028332067 0.00023207659 0.00041723205
0000e0 48 8a 99 39 20 93 15 39 98 2c d9 39 ef df 5e 39
       0.00029285462 0.00014264556 0.0004142269 0.00021254992
0000f0 a3 df 9d 39 e1 f3 9f 39 a7 ad c4 39 fd 2f 5c 39
       0.00030111996 0.00030508547 0.00037513414 0.00020998712
000100 dd 2b 69 39 b9 fa 4c 39 ee 2c 9a 39 cd ea 93 39
       0.00022236952 0.00019548358 0.00029406644 0.00028212965
000110 bd 59 42 39 62 d5 d8 39 3f 33 70 39 e9 7b 98 39
       0.00018534712 0.00041357713 0.00022907274 0.0002908402
000120 a8 44 03 39 51 02 c3 39 a0 c5 9c 39 a3 db b7 39
       0.0001251871 0.00037195024 0.0002990188 0.00035068122
000130 9c 69 e2 39 02 53 8e 39 82 d6 46 39 f7 18 93 39
       0.00043184764 0.00027146196 0.00018962662 0.00028056625
000140 13 96 9f 39 78 35 b2 39 9b b6 6b 39 8f b1 8b 39
       0.00030438657 0.00033990643 0.00022479372 0.00026644437
000150 2b 0b f4 39 1c 5b ae 39 62 f7 ac 39 95 72 55 39
       0.00046547627 0.00033255748 0.0003299071 0.00020355948
000160 fc 24 ac 39 1d 28 44 39 78 13 82 39 6b 8c e8 39
       0.00032833952 0.0001870696 0.00024810038 0.00044355108
000170 ec bb 91 39 c1 6a 84 39 d4 54 67 39 a3 42 3c 39
       0.00027796568 0.0002525654 0.00022061478 0.00017953901
000180 46 dd 56 39 3c c7 85 39 c2 1a ab 39 bf 6a 85 39
       0.00020491061 0.00025516178 0.00032635598 0.0002544727
000190 66 21 8d 39 70 a0 9a 39 17 01 9b 39 c5 b8 c5 39
       0.000269185 0.00029492704 0.00029564716 0.00037712432
0001a0 99 8a 9d 39 89 c1 4a 39 b1 a3 c5 39 36 a6 3f 39
       0.00030048637 0.00019336319 0.00037696728 0.00018277098
0001b0 33 d2 39 39 07 a6 a6 39 57 7d c9 39 f0 54 43 39
       0.0001772128 0.00031785687 0.00038431093 0.00018628291
0001c0 37 ca 62 39 00 2e dd 39 35 ce a4 39 05 f2 0c 39
       0.0002162837 0.00042186677 0.00031434154 0.000134416
0001d0 3a c0 07 3a bd d3 b5 39 b8 fb 2e 39 83 ac e3 39
       0.00051784853 0.00034680768 0.00016687706 0.00043425345
0001e0 62 a6 8f 39 6f 17 89 39 b4 9c 78 39 67 32 de 39
       0.0002739905 0.00026148136 0.000237095 0.00042380692
0001f0 29 2f e6 39 8e c9 ca 39 2d 61 d3 39 97 81 ee 39
       0.00043904156 0.00038678612 0.00040317458 0.0004549145
000200 32 8b 98 39 8c 1c 00 39 2a 66 1e 3a 20 24 35 3a
       0.00029095408 0.00012217666 0.00060424453 0.0006909985
000210 cb d5 e6 39 60 62 af 39 b4 75 24 39 0e a3 59 39
       0.00044028307 0.00033451896 0.00015684107 0.00020755475
000220 20 33 08 3a 2f 0a 3d 39 49 04 37 39 de df 01 3a
       0.00051956065 0.00018028238 0.00017453836 0.0004954318
000230 63 7e ca 39 f3 23 28 3a 9c 24 b7 39 53 15 04 3a
       0.00038622608 0.0006414048 0.00034931756 0.0005038578
000240 88 60 c4 39 a4 da 26 39 c9 c7 04 3a 35 ac 9b 39
       0.00037455955 0.00015912444 0.00050651707 0.00029692208
000250 be c5 2e 3a 70 9a ff 39 d5 bb 2e 3a 2f 15 7e 39
       0.0006667039 0.00048752455 0.00066655624 0.00024231219
000260 32 85 0c 3a b4 6a e0 39 aa d0 17 3a 58 56 a9 39
       0.0005360424 0.0004280411 0.0005791286 0.00032298523
000270 6a c3 d3 39 5f 63 6e 39 60 e2 9a 39 fd 45 2a 39
       0.0004039065 0.00022734467 0.00029541831 0.00016238536
000280 24 f6 08 39 10 94 ef 39 24 07 4f 39 2d 66 10 39
       0.00013061665 0.00045695947 0.00019743718 0.00013770974
000290 c7 ff b8 39 6f cc 49 39 3c d0 65 39 fa 0f a6 39
       0.00035285784 0.00019245011 0.00021916715 0.0003167389
0002a0 5d bd 29 3a 79 28 0f 39 95 8b 37 3a 76 ba 44 39
       0.00064750557 0.0001365262 0.00070016953 0.00018761479
0002b0 54 d0 4b 39 94 2b 03 39 20 bb 01 3a 5b 1f b1 39
       0.00019437197 0.00012509368 0.0004948843 0.00033783432
0002c0 78 dd 72 39 36 ae 9b 39 4b 46 8e 39 9e 94 b7 39
       0.00023161422 0.000296937 0.00027136723 0.00035015208
0002d0 de 16 1f 39 e9 c8 10 3a 15 88 c8 39 12 a8 88 39
       0.0001517194 0.0005523102 0.00038248362 0.00026065164
0002e0 1b fd bd 39 b4 3a 63 39 32 26 09 3a 0e 05 68 39
       0.00036237467 0.00021670276 0.0005231827 0.00022127127
0002f0 2c 0f 07 3a 74 35 3e 39 87 9c d7 39 83 5b 5c 39
       0.0005152102 0.00018139725 0.00041124618 0.00021014926
000300 df c4 be 39 ec d3 29 39 19 b0 aa 39 c3 6e b1 39
       0.00036386304 0.00016196043 0.0003255613 0.00033842595
000310 fe cb 6e 39 00 13 37 3a 0b 5e bf 39 e9 5c 96 39
       0.00022773442 0.0006983727 0.00036500426 0.00028679453
000320 12 c4 15 39 1a f6 02 3a 31 77 86 39 13 6d d1 39
       0.00014282789 0.00049957784 0.00025647276 0.00039944853
000330 a4 77 97 39 f5 6c 67 39 ae 05 49 39 4c af a6 39
       0.00028890104 0.00022070466 0.0001917097 0.00031792594
000340 4e 75 0c 3a ce 47 9a 39 ac 74 50 39 39 da 81 39
       0.0005358056 0.00029426668 0.0001987989 0.00024767386
000350 fa 4c 4c 3a da 77 b0 39 8e db 13 3a 2d 82 81 39
       0.0007793453 0.00033658632 0.0005640321 0.00024701786
000360 43 22 0f 3a ad d0 96 39 17 ac c6 39 12 cc a8 39
       0.00054601225 0.00028765705 0.0003789372 0.000321955
000370 87 c9 56 39 ab 51 3d 39 57 f2 0e 39 8c 26 f4 38
       0.00020483705 0.00018054868 0.00013632454 0.000116420066
000380 2f c0 f4 38 10 83 d4 39 bf e0 8b 39 bf b2 da 39
       0.00011670624 0.0004053344 0.00026679595 0.00041713376
000390 54 bd 40 39 c9 12 86 39 9e ab 45 39 65 55 d8 39
       0.00018381077 0.00025572468 0.00018851316 0.00041262354
0003a0 3b 89 81 39 cb 23 80 39 46 db 17 3a 14 92 62 39
       0.00024707042 0.0002444073 0.0005792867 0.00021607458
0003b0 1a 74 9c 39 25 d3 74 39 0a e9 cd 39 89 47 1f 39
       0.0002984114 0.00023348311 0.00039274275 0.0001519007
0003c0 e7 24 26 39 7d 8f 86 39 71 39 f4 39 9d 42 35 39
       0.00015844741 0.0002566538 0.00046582104 0.0001728632
0003d0 83 4f fb 39 e5 24 68 39 e3 2f 03 39 d8 c6 0e 3a
       0.00047933692 0.00022138988 0.00012510973 0.00054465
0003e0 d6 37 31 39 c0 56 36 39 59 62 59 39 97 3b 4a 3a
       0.00016900836 0.0001738919 0.0002073137 0.0007714568
0003f0 c7 b7 c6 39 f4 f7 79 39 8d 78 4e 3a b2 8c 41 3a
       0.00037902428 0.0002383886 0.000787624 0.0007383331

exp_avg f4 [128]
000000 b4 c2 23 bb ff e5 60 bb 14 6a f0 ba 89 6d a8 ba
       -0.0024987878 -0.0034316776 -0.0018342161 -0.0012850027
000010 71 94 98 3b 6f 35 88 3b a5 f0 9b b9 67 c4 b2 bb
       0.0046563675 0.0041567604 -0.00029743198 -0.005455542
000020 69 67 9c 3a 66 0b 42 3a f9 ac 02 bc 48 81 3c 3b
       0.0011932674 0.0007402211 -0.00797581 0.002876358
000030 b7 8f 93 3b ab e6 0a bb d0 af 06 bb 48 16 9d bb
       0.004503216 -0.0021194618 -0.002055157 -0.004793916
000040 2e 7b 14 bb b2 20 b7 3b 54 ba 07 ba 16 9b f0 3a
       -0.0022656429 0.0055886144 -0.00051776064 0.0018356766
000050 d8 4b cc 3a c2 25 09 bc c4 33 2f 3a bc 80 73 bb
       0.0015586568 -0.008370819 0.0006683434 -0.003715559
000060 6b 99 83 bb 7b 95 b0 3a 97 3f d1 3a 9c 6f 95 ba
       -0.0040160916 0.0013472283 0.0015964386 -0.001140106
000070 1d 9d c4 bb 28 48 c1 35 d3 f6 6e 3b b8 c5 14 bb
       -0.0060001747 1.4400621e-06 0.0036463037 -0.0022700857
000080 60 d5 e6 3b d8 a0 c0 bb 85 12 92 39 e9 93 dc ba
       0.0070444793 -0.005878549 0.00027861088 -0.0016828749
000090 a8 57 1b bc de 40 25 3c 25 4e db 3b d5 48 93 39
       -0.009481348 0.010086266 0.006692665 0.0002809229
0000a0 f9 69 24 3b 99 bc 4a 3b 63 bd 88 39 6d 97 6a ba
       0.0025087579 0.0030935167 0.00026081046 -0.0008948956
0000b0 7e 97 b9 bb 59 4c f9 3a b6 74 5a 3b b4 0c 7b 3b
       -0.005663811 0.0019019946 0.0033333725 0.0038307132
0000c0 c9 d9 73 bb b0 17 ca ba fa c6 ba 3a e5 ea 2e bb
       -0.0037208667 -0.0015418436 0.0014249973 -0.00266903
0000d0 1f cf 84 3b d9 ac 80 ba 96 b0 86 3b 2b 56 d9 3b
       0.004053011 -0.0009817138 0.004110406 0.0066325865
0000e0 57 67 d4 bb 3f 0d f9 3a 2f f2 3a 3a 6f b7 8b ba
       -0.0064820456 0.001900114 0.0007131425 -0.0010659526
0000f0 35 c2 2a 3b d4 21 9f 3b 25 60 6f 3b 1c 4f 61 3b
       0.0026055698 0.0048563275 0.0036525812 0.0034379428
000100 bf aa f0 bb 20 ff 71 3a 12 2f e8 ba e4 d7 29 bb
       -0.0073445733 0.0009231437 -0.0017714223 -0.0025916034
000110 f7 d3 3c bb f5 ec 28 bb 34 80 e6 bb 92 6b 3c bb
       -0.0028812864 -0.0025776003 -0.007034326 -0.002875064
000120 96 16 31 3c 0c 00 04 3b d5 d1 ce 3a e2 b2 3a 3b
       0.010808608 0.002014163 0.0015779088 0.002848797
000130 9f 0c 90 3b fd 71 6e bb 40 1c 34 bc bf 4a ae 3a
       0.004396036 -0.003638386 -0.010993063 0.0013297423
000140 3e be 2d bb 06 6f 3b bb 5c 59 e1 3b a8 c1 80 bb
       -0.0026511098 -0.002860011 0.0068771075 -0.0039293356
000150 38 15 a3 b9 4f 7f cd 3a 7e 22 6d 38 4f 63 b8 ba
       -0.00031105592 0.00156782 5.6537327e-05 -0.0014067682
000160 3c e9 e4 3a 61 57 eb ba 27 09 0c 3c f8 ed 4d ba
       0.0017464529 -0.0017955118 0.008547104 -0.00078555895
000170 3a 6d b7 3a ca a1 aa 3a 3d 66 c0 3a e7 5b 9a 3b
       0.0013994344 0.0013018188 0.0014678907 0.0047106626
000180 93 47 79 3a 7a 18 0e 3b 65 a6 09 bb 54 7a b8 39
       0.00095092616 0.002168207 -0.002100372 0.00035186356
000190 2b 3b eb 3a 4b bb a0 ba cd 9e 8d bb 4a e0 a3 3b
       0.001794671 -0.0012262849 -0.004321909 0.0050011026
0001a0 bb 8b c9 3b 2d f0 e5 bb 0b 8e f6 3b 97 ab 82 3b
       0.0061506904 -0.0070171566 0.007524257 0.0039877403
0001b0 ee e0 5d 3b 9f 48 77 bb 64 31 17 3a 9a a7 19 bc
       0.0033855992 -0.0037732495 0.00057675526 -0.009378338
0001c0 56 01 92 bb 62 3a 91 3a b1 5e 1d 3a 04 bf bb ba
       -0.0044557257 0.0011080022 0.0006003185 -0.0014323895
0001d0 98 d7 db ba f5 d8 18 3a 4d 0f 1e 3b c6 8c 28 3c
       -0.0016772626 0.0005830669 0.0024118007 0.010287469
0001e0 eb a5 4b bb ec 78 71 3b 3a 32 ea bb 5e 55 87 3b
       -0.0031074237 0.0036845757 -0.0071471008 0.0041300496
0001f0 88 f3 f6 3b ea 06 ab ba e8 30 b6 ba 4b d6 24 3a
       0.0075363554 -0.0013048325 -0.0013900073 0.00062880357

exp_avg_sq f4 [128]
000000 93 85 fb 39 53 42 56 3a 39 32 83 3a a0 61 2a 3a
       0.0004797397 0.0008173335 0.0010009474 0.00064995326
000010 9a 00 ca 39 ed a4 d0 39 0c 44 4f 39 94 42 7b 39
       0.0003852889 0.0003979573 0.00019766408 0.00023962028
000020 4e 94 97 39 a5 b5 4c 3a b9 14 2f 3a 36 73 b8 39
       0.0002891146 0.00078090496 0.0006678808 0.00035181054
000030 37 c0 9e 3a 6e 72 3a 39 90 28 0d 3a a7 11 25 39
       0.0012111728 0.0001778097 0.00053847674 0.00015742202
000040 26 32 46 39 cb b8 d2 39 4c 70 13 39 06 b8 12 39
       0.00018901433 0.00040192003 0.00014060846 0.00013992199
000050 b2 7f a8 39 d7 f0 ec 39 e2 5c 49 39 2e c7 04 3a
       0.00032138597 0.00045192867 0.00019203455 0.00050650805
000060 0f 0d d1 39 4a 32 83 39 dc 2d 36 39 62 ab 09 3a
       0.00039873316 0.00025023735 0.00017373957 0.0005251673
000070 31 b0 2c 3b e5 92 90 39 59 51 ed 39 16 4a 89 3a
       0.0026350135 0.00027575265 0.0004526477 0.001047435
000080 12 4a 97 39 ec 56 59 3a 11 bc be 39 d6 10 b9 39
       0.0002885615 0.00082908454 0.00036379744 0.00035298493
000090 04 98 3f 3a e9 59 13 3a 71 59 e0 39 01 73 ac 39
       0.0007308724 0.00056210026 0.00042791248 0.0003289208
0000a0 82 9f 6d 39 c8 8e ac 39 b1 5b 3b 39 20 cf 38 3a
       0.00022661503 0.00032912777 0.00017867867 0.0007049907
0000b0 ae 78 d0 39 8a e7 a1 39 4d 95 24 39 b1 5c 8e 39
       0.00039762765 0.00030880823 0.00015695878 0.0002715341
0000c0 8b 10 b9 39 80 b0 87 39 7d 58 4a 3a e8 51 2f 39
       0.00035298275 0.0002588071 0.0007718874 0.00016719813
0000d0 cd ca b6 39 a3 55 a8 39 e4 c3 4e 3a b2 00 93 39
       0.00034864843 0.0003210726 0.00078874663 0.00028038543
0000e0 17 6d c4 39 15 f5 9b 39 ce 28 0c 3a 3d 5c 3b 3a
       0.00037465311 0.00029746504 0.00053466565 0.00071472285
0000f0 4e 7e 85 39 ca 3c 2f 3a 68 8d f9 39 18 25 6a 3a
       0.0002546184 0.00066847785 0.00047598337 0.0008931919
000100 b3 ac 9e 3a fd f2 59 39 40 34 e4 39 32 b1 6b 39
       0.0012105912 0.00020785253 0.00043526478 0.00022477357
000110 05 11 47 39 9b e2 d2 39 36 00 82 39 ab 81 74 39
       0.00018984459 0.00040223156 0.0002479569 0.00023317958
000120 a5 4f 49 3a 4b 50 cd 39 e6 27 71 3a 06 83 92 39
       0.00076794095 0.0003916047 0.0009199366 0.0002794491
000130 9e be 85 39 68 a4 2b 3a 55 03 7e 3a 15 74 bd 39
       0.00025509758 0.0006547631 0.00096898276 0.00036135377
000140 6e 8d 80 39 46 c7 7a 39 00 44 65 39 53 40 3f 39
       0.00024519436 0.00023916093 0.00021864474 0.00018239142
000150 ef 01 8f 38 00 19 51 3a df 65 26 3a 9a 93 cc 39
       6.8191315e-05 0.00079764426 0.00063475774 0.00039019884
000160 a6 88 05 3a cc 73 0f 3a 24 2d e1 39 ec a0 84 39
       0.00050939096 0.0005472272 0.00042948977 0.00025296898
000170 bc 90 fe 39 14 73 90 39 7e af 79 39 12 02 8a 39
       0.0004855449 0.0002755156 0.00023811866 0.00026322954
000180 78 8b 26 39 96 34 c8 39 46 16 0d 3a 98 41 49 39
       0.0001588295 0.00038186152 0.0005382042 0.0001919329
000190 62 2c ba 39 df 60 b3 3a 49 fe 0b 3a 3d f7 1d 3a
       0.00035509752 0.0013685486 0.00053403206 0.0006025916
0001a0 ad ef 6a 3a 26 41 14 3a 18 ba 84 3a d6 d1 ff 39
       0.0008962106 0.000565546 0.0010126261 0.0004879373
0001b0 09 b2 e6 39 16 04 bd 39 0e 10 45 3a ac 59 0a 3b
       0.00044001665 0.00036051933 0.0007517346 0.0021110578
0001c0 44 09 e2 39 67 8a 4f 39 6e 7f bb 39 44 d3 5f 39
       0.00043112983 0.00019792617 0.00035762362 0.0002134564
0001d0 5c ed d2 39 0d 28 76 3a 33 23 bc 39 af 79 99 39
       0.00040231168 0.00093901233 0.0003588438 0.00029273095
0001e0 33 1e 93 39 d0 a5 6f 39 76 43 04 3a c3 be 68 39
       0.00028060525 0.00022854586 0.0005045453 0.00022196308
0001f0 71 19 0a 3a eb 9d e7 39 c9 4d 0d 39 8a 02 67 39
       0.00052680733 0.00044177411 0.00013475785 0.00022030823

exp_avg f4 [128]
000000 a2 c2 23 bb 15 e6 60 bb 48 6a f0 ba 8a 6d a8 ba
       -0.0024987836 -0.0034316827 -0.0018342221 -0.0012850028
000010 73 94 98 3b 6f 35 88 3b 62 f0 9b b9 62 c4 b2 bb
       0.0046563684 0.0041567604 -0.00029743003 -0.0054555396
000020 af 67 9c 3a 30 0b 42 3a f6 ac 02 bc 37 81 3c 3b
       0.0011932756 0.000740218 -0.007975807 0.0028763541
000030 b8 8f 93 3b b8 e6 0a bb d7 af 06 bb 47 16 9d bb
       0.0045032166 -0.0021194648 -0.0020551586 -0.0047939154
000040 1b 7b 14 bb b6 20 b7 3b 1d ba 07 ba 15 9b f0 3a
       -0.0022656384 0.0055886162 -0.00051775743 0.0018356765
000050 ea 4b cc 3a c3 25 09 bc bf 33 2f 3a b4 80 73 bb
       0.0015586589 -0.0083708195 0.0006683431 -0.003715557
000060 57 99 83 bb 8e 95 b0 3a 91 3f d1 3a c0 6f 95 ba
       -0.0040160823 0.0013472305 0.0015964379 -0.0011401102
000070 34 9d c4 bb 8e 1e c1 35 db f6 6e 3b d5 c5 14 bb
       -0.0060001854 1.4388513e-06 0.0036463055 -0.0022700925
000080 65 d5 e6 3b d6 a0 c0 bb f4 11 92 39 e1 93 dc ba
       0.0070444816 -0.005878548 0.00027860666 -0.0016828739
000090 ad 57 1b bc e7 40 25 3c 23 4e db 3b c5 48 93 39
       -0.009481353 0.010086275 0.006692664 0.00028092242
0000a0 0e 6a 24 3b b6 bc 4a 3b 7b bd 88 39 d3 97 6a ba
       0.0025087628 0.0030935234 0.00026081115 -0.0008949015
0000b0 86 97 b9 bb 80 4c f9 3a cb 74 5a 3b a3 0c 7b 3b
       -0.005663815 0.0019019991 0.0033333774 0.0038307093
0000c0 ae d9 73 bb c5 17 ca ba f1 c6 ba 3a ee ea 2e bb
       -0.0037208605 -0.0015418461 0.0014249963 -0.0026690322
0000d0 1a cf 84 3b d1 ac 80 ba 97 b0 86 3b 2e 56 d9 3b
       0.0040530087 -0.0009817128 0.0041104066 0.006632588
0000e0 56 67 d4 bb 1d 0d f9 3a 3f f2 3a 3a 65 b7 8b ba
       -0.006482045 0.00190011 0.00071314344 -0.0010659514
0000f0 41 c2 2a 3b d3 21 9f 3b 3a 60 6f 3b 21 4f 61 3b
       0.0026055726 0.004856327 0.0036525861 0.003437944
000100 af aa f0 bb 18 ff 71 3a dd 2e e8 ba ed d7 29 bb
       -0.007344566 0.00092314323 -0.0017714162 -0.0025916055
000110 f5 d3 3c bb e6 ec 28 bb 3e 80 e6 bb 9a 6b 3c bb
       -0.002881286 -0.0025775968 -0.0070343306 -0.002875066
000120 99 16 31 3c 0b 00 04 3b eb d1 ce 3a ff b2 3a 3b
       0.01080861 0.0020141627 0.0015779113 0.0028488038
000130 a0 0c 90 3b e0 71 6e bb 36 1c 34 bc bf 4a ae 3a
       0.0043960363 -0.0036383793 -0.010993054 0.0013297423
000140 4c be 2d bb 07 6f 3b bb 68 59 e1 3b b1 c1 80 bb
       -0.002651113 -0.0028600113 0.006877113 -0.00392934
000150 50 15 a3 b9 83 7f cd 3a b2 23 6d 38 6e 63 b8 ba
       -0.00031105662 0.001567826 5.6538447e-05 -0.0014067718
000160 38 e9 e4 3a 43 57 eb ba 28 09 0c 3c e7 ed 4d ba
       0.0017464524 -0.0017955083 0.008547105 -0.00078555796
000170 27 6d b7 3a c3 a1 aa 3a 31 66 c0 3a e3 5b 9a 3b
       0.0013994322 0.001301818 0.0014678893 0.004710661
000180 88 47 79 3a 87 18 0e 3b 5d a6 09 bb cc 7a b8 39
       0.0009509255 0.00216821 -0.0021003701 0.00035186706
000190 2f 3b eb 3a 1c bb a0 ba c9 9e 8d bb 53 e0 a3 3b
       0.0017946715 -0.0012262794 -0.004321907 0.0050011068
0001a0 b4 8b c9 3b 39 f0 e5 bb 17 8e f6 3b 89 ab 82 3b
       0.006150687 -0.007017162 0.0075242626 0.0039877337
0001b0 df e0 5d 3b b2 48 77 bb 46 31 17 3a a0 a7 19 bc
       0.0033855957 -0.0037732539 0.0005767535 -0.009378344
0001c0 53 01 92 bb 6d 3a 91 3a 15 5e 1d 3a 04 bf bb ba
       -0.0044557243 0.0011080034 0.0006003094 -0.0014323895
0001d0 96 d7 db ba 02 d9 18 3a 4a 0f 1e 3b c5 8c 28 3c
       -0.0016772624 0.00058306765 0.0024118 0.010287468
0001e0 e6 a5 4b bb ea 78 71 3b 36 32 ea bb 61 55 87 3b
       -0.0031074225 0.0036845752 -0.007147099 0.004130051
0001f0 8a f3 f6 3b 03 07 ab ba df 30 b6 ba 73 d6 24 3a
       0.0075363563 -0.0013048354 -0.0013900063 0.0006288059

exp_avg_sq f4 [128]
000000 8f 85 fb 39 53 42 56 3a 3c 32 83 3a a1 61 2a 3a
       0.0004797396 0.0008173335 0.0010009478 0.0006499533
000010 99 00 ca 39 ef a4 d0 39 08 44 4f 39 9e 42 7b 39
       0.00038528888 0.00039795737 0.00019766402 0.00023962042
000020 4e 94 97 39 a4 b5 4c 3a b6 14 2f 3a 39 73 b8 39
       0.0002891146 0.0007809049 0.00066788064 0.00035181062
000030 3a c0 9e 3a 71 72 3a 39 90 28 0d 3a ab 11 25 39
       0.0012111731 0.00017780975 0.00053847674 0.00015742208
000040 28 32 46 39 cb b8 d2 39 50 70 13 39 01 b8 12 39
       0.00018901436 0.00040192003 0.00014060852 0.00013992192
000050 b5 7f a8 39 dd f0 ec 39 e3 5c 49 39 32 c7 04 3a
       0.00032138606 0.00045192885 0.00019203457 0.0005065083
000060 0f 0d d1 39 4a 32 83 39 da 2d 36 39 63 ab 09 3a
       0.00039873316 0.00025023735 0.00017373954 0.0005251674
000070 30 b0 2c 3b e4 92 90 39 57 51 ed 39 14 4a 89 3a
       0.0026350133 0.00027575262 0.00045264766 0.0010474348
000080 12 4a 97 39 e9 56 59 3a 15 bc be 39 d3 10 b9 39
       0.0002885615 0.00082908437 0.00036379756 0.00035298485
000090 04 98 3f 3a ec 59 13 3a 6d 59 e0 39 03 73 ac 39
       0.0007308724 0.00056210044 0.00042791237 0.00032892087
0000a0 82 9f 6d 39 cb 8e ac 39 b0 5b 3b 39 1f cf 38 3a
       0.00022661503 0.00032912786 0.00017867866 0.00070499064
0000b0 a9 78 d0 39 8b e7 a1 39 4d 95 24 39 b3 5c 8e 39
       0.0003976275 0.00030880826 0.00015695878 0.00027153417
0000c0 8c 10 b9 39 82 b0 87 39 81 58 4a 3a ec 51 2f 39
       0.00035298278 0.00025880715 0.00077188766 0.00016719819
0000d0 cb ca b6 39 a0 55 a8 39 e1 c3 4e 3a ae 00 93 39
       0.00034864838 0.00032107253 0.00078874646 0.0002803853
0000e0 18 6d c4 39 15 f5 9b 39 d1 28 0c 3a 3f 5c 3b 3a
       0.00037465314 0.00029746504 0.0005346658 0.00071472296
0000f0 4e 7e 85 39 c8 3c 2f 3a 63 8d f9 39 16 25 6a 3a
       0.0002546184 0.00066847773 0.00047598322 0.0008931918
000100 b5 ac 9e 3a fd f2 59 39 3e 34 e4 39 32 b1 6b 39
       0.0012105914 0.00020785253 0.00043526472 0.00022477357
000110 02 11 47 39 9b e2 d2 39 3a 00 82 39 ad 81 74 39
       0.00018984455 0.00040223156 0.000247957 0.00023317961
000120 a3 4f 49 3a 44 50 cd 39 e8 27 71 3a 08 83 92 39
       0.00076794083 0.0003916045 0.0009199367 0.00027944916
000130 a1 be 85 39 69 a4 2b 3a 54 03 7e 3a 13 74 bd 39
       0.00025509766 0.00065476313 0.0009689827 0.0003613537
000140 6c 8d 80 39 44 c7 7a 39 00 44 65 39 52 40 3f 39
       0.0002451943 0.0002391609 0.00021864474 0.0001823914
000150 f2 01 8f 38 04 19 51 3a de 65 26 3a 9c 93 cc 39
       6.819134e-05 0.0007976445 0.0006347577 0.0003901989
000160 a5 88 05 3a c9 73 0f 3a 22 2d e1 39 ec a0 84 39
       0.0005093909 0.00054722704 0.0004294897 0.00025296898
000170 be 90 fe 39 11 73 90 39 80 af 79 39 13 02 8a 39
       0.00048554497 0.00027551551 0.0002381187 0.00026322957
000180 76 8b 26 39 90 34 c8 39 45 16 0d 3a 96 41 49 39
       0.00015882947 0.00038186135 0.00053820416 0.00019193286
000190 66 2c ba 39 dd 60 b3 3a 49 fe 0b 3a 3c f7 1d 3a
       0.00035509764 0.0013685484 0.00053403206 0.00060259155
0001a0 ab ef 6a 3a 27 41 14 3a 15 ba 84 3a d4 d1 ff 39
       0.0008962105 0.00056554604 0.0010126258 0.00048793724
0001b0 06 b2 e6 39 13 04 bd 39 0f 10 45 3a ab 59 0a 3b
       0.00044001656 0.00036051925 0.00075173465 0.0021110575
0001c0 42 09 e2 39 6d 8a 4f 39 6e 7f bb 39 4a d3 5f 39
       0.00043112977 0.00019792626 0.00035762362 0.00021345649
0001d0 5c ed d2 39 09 28 76 3a 34 23 bc 39 af 79 99 39
       0.00040231168 0.0009390121 0.00035884383 0.00029273095
0001e0 2a 1e 93 39 ce a5 6f 39 76 43 04 3a c6 be 68 39
       0.000280605 0.00022854583 0.0005045453 0.00022196313
0001f0 71 19 0a 3a ed 9d e7 39 ca 4d 0d 39 88 02 67 39
       0.00052680733 0.00044177417 0.00013475787 0.0002203082
